checkpoint_final.pth (torch_old, 541618 bytes, 6 tensors)

layers.0.weight f4 [400, 33]
00000000: f2ee 3f3d 70af a8bc 6239 34be da58 74be
00000010: c30b 473c 5bc5 6b3e 9790 853d 6caf 033e
00000020: 4442 2fbe 070f f0bc dbfa ebbc 2422 003d
00000030: f8d0 8fb9 e5ef 62be 0082 24be e750 2b3d
00000040: e4b9 debe 4529 253e 52e2 abbe c943 a6bd
00000050: ed0f 26bc 28c3 c83c a12b dcbd 4521 f4bb
00000060: dafc ac3c 0a1e e33d 221f 8e3e f80a 2bbd
00000070: d123 fabd 2c83 34bd ac15 40be 4e03 1a3e
00000080: 30dc 1dbe 1404 97bd b5ad aebe 998f a3be
00000090: ff6a da3e 045e 05bf 9f5a 363f 181e 383e
000000a0: f71d af3d c7b7 343c eea2 193e 90ce 8bbd
000000b0: f6a6 2abc 8dcf 04be a01b 593e 84b4 e33d
000000c0: 79f5 063d cf32 963e dc77 3f3e 2d38 e43e
000000d0: 01e8 c93e fb2b cabc e228 193e 712a 3e3d
000000e0: 1267 c63d e58e a03c 04af f13c a1b7 52bd
000000f0: 0e47 17be e5b1 823d 222e d3bd fce6 8e3e
00000100: f0b6 c33d aeb0 34bf 5ac6 3a3e 908a b63e
00000110: f33f de3d af18 4cbc 9099 a7be 7b12 273f
00000120: f6c0 063e 7e26 4dbd fc31 c23e f415 fd3c
00000130: afc2 f83d da8f 4dbc 5cae 433d 3bde 5dbd
00000140: e737 d0bd e47a 4d3e 07b8 4e3f f696 2abf
00000150: 4753 26be 2dd3 a4bc 66a6 7f3b de50 8f3c
00000160: e939 493d ae34 c0bd cf31 be3c 66ec 223e
00000170: 5715 013e b3c7 533e 9a49 0fbe 8244 e7bd
00000180: 977e 60bd 8c3c 153d 9a7b 96be 87aa 29bd
00000190: df67 893e f39e fdbc f05e 813d 4802 0cbe
000001a0: b701 88bd 8188 5bbe 3b72 22be f2d6 9dbe
000001b0: 3c8c 1d3e 54c8 973d f26b dabd 9c3b c83d
000001c0: 855a c6bd 9fa1 433e 2c14 863e 168b bc3d
000001d0: 594b 833e cdb8 8c3e 5f77 d93d a781 d13d
000001e0: 766a 7b3d 779e 573d f066 75be 92c2 2bbc
000001f0: 81f2 eebd 63d5 96bd 6e22 913c 642d 6c3d
00000200: 5e70 79bd a5df 50be acab 17bd 1ea4 dfbe
00000210: 2c2c 15bd 9274 983e 05f6 2e3e e3a3 efbe
00000220: 274d 613e 39b7 623e a0eb 493e 9a02 de3d
00000230: f3bd 5d3e 7209 713c 9253 e43d 1fa9 01bc
00000240: 9b43 1cbd c960 873d 6b17 9a3e bdeb 1c3d
00000250: 5091 3c3e 8f12 3abf fdda afbd e642 44be
00000260: 1821 323d 8ab7 213e 66fa ccbc c1bf 95bd
00000270: 53c6 01be cba0 4abe 002b 163e ba3d 343e
00000280: 358a 953b 28ff 0bbd c03c cebe 9ee9 19be
00000290: 4842 84be 8947 f6bc aeca 553d d9e0 363b
000002a0: fa13 b5be b96c c6be 635f 033f f0ab 9d3d
000002b0: 937c af3d 9f44 73bd f5cc 05be ae56 723e
000002c0: 3a5e f9bc 9177 4c3c 8ff3 163e f35f 23be
000002d0: 8e4c 463d 1994 4c3d d3ca 76be 8569 38be
000002e0: 52a3 513c f96c 543d 0109 cebd a80a c0bc
000002f0: d7a6 a9bd 8fc1 a1bd 4cff 0f3e e5f8 173e
00000300: f417 4a3d 0a31 883d 1a51 fbbd e231 89be
00000310: afbd cfbd 1ed6 55bd 4a07 1dbe 7b39 3fbb
00000320: 8e42 e13d adb6 cb3d 212e b9bd b4a0 cebe
00000330: 3615 d4be eb0d f03a 44de adbc 1285 1e3e
00000340: 1ecb 40be e896 f4bc bf3f 763d bafe 02bc
00000350: b9f4 eb3d fe8a 81bd f6fa 063f e172 a9be
00000360: 5727 2cbf 79e5 e4bd 7092 953e 17c5 85be
00000370: f0bc 8e3b 9fee 413d 62cd 153e 3dce a7bd
00000380: 95d4 963c ee83 133e 06e3 b93d c866 4abd
00000390: fd09 eebd e02d d3bc eac1 c33e 574f 1fbd
000003a0: 5575 263e b62a d33d 0bb6 c23e f321 81bd
000003b0: 9467 273f eeb1 c63e 8721 67bd cdac 36bd
000003c0: 4c0f 283e da54 063e fa85 243e 9ac0 00bc
000003d0: ada5 48bd 50ef d4bd 941c ee3d 6e94 873d
000003e0: dda7 cfbe 683c 143e b8a1 bdbe 0efc 153d
000003f0: c889 903b 5237 51bb df8e 8d3d 0158 c13c
0.046858735 -0.020591468 -0.17600015 -0.23862019 0.0121488 0.23024504 0.06521719 0.12859887
-0.17115122 -0.02930404 -0.02880614 0.03128256 -0.0002743078 -0.22161825 -0.16065216 0.0418252
-0.43501198 0.16129024 -0.33571106 -0.08118398 -0.010135633 0.02450712 -0.10750509 -0.007450255
0.021116663 0.11089714 0.27758127 -0.041758507 -0.12213863 -0.044070408 -0.18758267 0.15040323
-0.15416026 -0.07373825 -0.34116903 -0.31945494 0.42659757 -0.5209658 0.71232027 0.1798023
0.08550637 0.011030144 0.15003559 -0.06826508 -0.010415783 -0.129698 0.21201944 0.11118415
0.032948945 0.2933564 0.18698066 0.4457411 0.39434817 -0.024679175 0.14957002 0.046427194
0.09687628 0.019599387 0.0295024 -0.051444653 -0.14773199 0.06381587 -0.103115335 0.27910602
0.09556377 -0.7058209 0.18239728 0.3565259 0.10852041 -0.012457057 -0.32734346 0.65262574
0.13159546 -0.050085537 0.3792876 0.030894257 0.12146508 -0.012546504 0.047773704 -0.054167014
-0.101669125 0.2006641 0.80749553 -0.666366 -0.16242705 -0.020120228 0.0039009093 0.017494615
0.049127493 -0.09385048 0.02321711 0.15910491 0.12605797 0.20681648 -0.1399292 -0.11292364
-0.054808225 0.036434695 -0.29391176 -0.041422393 0.2683706 -0.030959582 0.06316936 -0.13672745
-0.06640952 -0.21438791 -0.15863888 -0.30828053 0.15385526 0.074112564 -0.1066512 0.097769946
-0.09685234 0.19104622 0.26187265 0.09206216 0.25643423 0.27484742 0.10618471 0.10229807
0.061380826 0.05264136 -0.23965049 -0.010483401 -0.11667348 -0.07364919 0.017716613 0.057660475
-0.060898177 -0.20397814 -0.037028953 -0.436799 -0.03641908 0.29776436 0.17086037 -0.46804723
0.22002088 0.22140206 0.1971879 0.1084034 0.21654491 0.014711725 0.11148752 -0.007913857
-0.03815041 0.06610257 0.30095991 0.038310755 0.18414807 -0.7268457 -0.085866906 -0.19166145
0.043488592 0.15792671 -0.025021743 -0.07311965 -0.12673311 -0.197879 0.1466484 0.17601672
0.0045635947 -0.034178883 -0.40280724 -0.15030524 -0.2583182 -0.030063407 0.052195244 0.0027905016
-0.35366803 -0.38754824 0.51317424 0.0769881 0.085686825 -0.059391614 -0.13066466 0.23665878
-0.030440439 0.012479679 0.14741348 -0.1595457 0.048412852 0.049945924 -0.24100809 -0.18009003
0.012795286 0.051861737 -0.10060311 -0.023442581 -0.08283775 -0.078982465 0.14062232 0.1484104
0.04933925 0.066499785 -0.12271328 -0.2679587 -0.10143601 -0.05220615 -0.15334812 -0.0029178548
0.109990224 0.09946952 -0.090420015 -0.40356982 -0.41422433 0.0018314695 -0.021224149 0.1548045
-0.18827483 -0.029857114 0.060119387 -0.007995302 0.115212865 -0.06325339 0.52726686 -0.33095458
-0.6724753 -0.11176581 0.29213285 -0.2612693 0.004356019 0.047346707 0.14629129 -0.08193634
0.018411914 0.14405796 0.090765044 -0.049414426 -0.11622999 -0.02577871 0.38233882 -0.038894024
0.16255696 0.10310881 0.38029513 -0.063053034 0.6539242 0.38807625 -0.05642846 -0.04459839
0.16412085 0.13118306 0.16066733 -0.00785842 -0.048986126 -0.10397208 0.116265446 0.066201076
-0.40557757 0.14476168 -0.37037444 0.03661733 0.004410956 -0.0031923843 0.06912016 0.023601534

layers.0.bias f4 [400]
00000000: 3ffa 4cbe b466 1e3e 6a46 e33c 36f1 09bd
00000010: e408 cabe f947 a7be 0779 54be dde5 10be
00000020: 7248 89bd fb95 f0bb e8dd 433e ae22 22be
00000030: 3ade 3b3e 09d4 d5bc b534 67be 4aaa c3bd
00000040: 8a63 463d 0eab 5cbe 7b84 8b3c bb98 1fbd
00000050: c22a 48be 4be8 d9bd 6b1f 62be 8533 55be
00000060: 2788 833d 3861 34be 8468 a2bd a885 713e
00000070: ac36 583e 27ef 983c 6e63 99bd 6d89 a93d
00000080: 6fbc 273e 3789 2bbe 3ac3 373c b2fe ffbd
00000090: 7051 fdbb 418f a43c c76f 3c3e d7f5 20bd
000000a0: b202 983d d3d0 58bd 6a35 af3d 8a13 fa3d
000000b0: b651 c83c 65c4 36be a5b7 393c b371 ee3d
000000c0: 70e4 4e3e 95e2 0abe c444 86bd f42e 143d
000000d0: f620 003e cc8d 2dbe 4adc 4abe 7704 b23c
000000e0: 54b1 0c3c 1d68 2bbe 687a 26be 4b19 233e
000000f0: 9f48 2fbe 2d7a 05bd c38a 1c3e da4a 0fbe
00000100: 8c9f 623d c824 b1bd 7aa8 233d 937e 5abe
00000110: 9974 aabd e795 7e3d fefe afbc 5c45 9ebd
00000120: 7284 d43d 1037 bdbd 0c2a e53d 9866 893d
00000130: 9f4a f0bd ec9e 9dbd 061b aebb c82b 30be
00000140: 4928 9dbd e151 4ebe 0ce4 4fbe 6070 793d
00000150: a013 29bd 359d ad3d 870c 62bd b754 833e
00000160: 045d 083e e8f2 0bbe a1aa 90be ca7e 5d3d
00000170: c876 22bd b638 8bba d71c 0bbe 3526 2dbe
00000180: e1a3 ddbd c9f8 6dbd 7633 943d 1935 693e
00000190: 6a6e 30be 8eb5 323e b8b0 66bd 583d 513d
000001a0: d11f d83c dacd babc b9a7 4a3e a8d1 1dbe
000001b0: 9e1e 873e 1cd0 7f3b 578e 173d abe0 90be
000001c0: d3a8 0cbe f1ce 41be aef1 7b3d 3710 80bd
000001d0: 0b55 fd3b cd0a c0bd 904d debd 68bd 96be
000001e0: f6b1 92be ca60 73be 10ec 98be 358c 1d3e
000001f0: 17cb f8bd bc31 10be b49c df3d 4e7e 07bd
00000200: 9d76 8d3b bacf 1b3e 6122 92bd 872f 593e
00000210: 69ae a63d 22c8 193d 41a0 0fbe 19a1 06bd
00000220: 350e a6bd 8482 a0be c21e de3d 63cb 9a3d
00000230: 11ba 5bbd 1aa2 1c3d 9143 ccbe c811 15bd
00000240: a691 34be 9a2e e43c 4c37 93bc 66e2 f83d
00000250: 7675 7dbd 6c05 9dbe cdb7 453c de44 0f3d
00000260: 66f2 713d 589e 8ebe f6a8 b1be b778 85be
00000270: 7065 e23d b977 93bd 1868 0ebe 95a0 8abc
00000280: d368 47be 473a 163e 3954 b0bb 77b2 ab3d
00000290: bab4 5c3e c90c cbbd 1a8b e13d 4aa5 853d
000002a0: a45e 67be efc3 43bd 8e33 8c3c 1b40 41be
000002b0: efce dcbd 6030 a23d e063 4ebe 29ee afbc
000002c0: e8c6 c7bb b6b4 64be ec9b bf3d 280f debd
000002d0: c4d5 673e a0cc 0dbd 30d8 24bd c052 04be
000002e0: 5a3a 10bd 3666 50be 3578 72be 85d4 15be
000002f0: 04d5 c13d 4aa7 9e3d edc8 533d a8e7 56be
00000300: bdc5 48be 0cab 273e d8de b1bb 96bf 163e
00000310: eeb2 56be b406 4ebe 51a5 bc3d 790a 20bd
00000320: e7f0 c0bd 2afb acbd 55b0 9bbd a246 6bbe
00000330: ade5 49be ba68 6b3e aecd c83d 440b 0dbe
00000340: 8b47 123e f573 da3d c83f 143c ed95 1f3e
00000350: 596c 12be 22d5 94be 3540 1e3e 121a 36be
00000360: c609 48bd 15b1 21be 07bf cf3d 1589 8bbd
00000370: e0b2 6dbe 9add 86be 6db0 75be 1483 aebd
00000380: 548e 413e 87f9 85bd 4524 243e aebc 5e3e
00000390: 6bb6 06be cf73 783d 6b1e 7b3d a96a 02be
000003a0: a94a 513d 39cf 76be 5761 da39 0020 a63d
000003b0: d528 f43c ebc3 bfbe 9e75 6cbd 0353 05be
000003c0: f142 c5bc 8689 9abd 875a 19be 53ed 1e3d
000003d0: c323 7bbe a505 5abc 70bc f63d d977 3c3e
000003e0: 7e03 77be 127b 5cbe 6f50 3cbd 454c 763d
000003f0: 835d 2cbe 345a 3dbe d9e2 963e 599f c73c
-0.20017336 0.15468866 0.027743537 -0.033677302 -0.39459908 -0.32672098 -0.20749293 -0.14150186
-0.06703271 -0.007342098 0.1912762 -0.15833542 0.18346491 -0.026102083 -0.225787 -0.095539644
0.04843477 -0.21549627 0.017030945 -0.038964015 -0.19547561 -0.106400095 -0.22082298 -0.20820434
0.064224534 -0.17615211 -0.07930091 0.23586142 0.21114606 0.018668724 -0.07489668 0.08278165
0.16380475 -0.16751562 0.011215979 -0.12499751 -0.0077306554 0.02008784 0.18402015 -0.03929695
0.07422389 -0.052933525 0.0855511 0.12210758 0.024453025 -0.17848356 0.011335288 0.1164278
0.2020433 -0.13562997 -0.06556085 0.03617759 0.12512574 -0.16948622 -0.19810596 0.021730645
0.0085872 -0.16738935 -0.16257632 0.15927617 -0.17117546 -0.03258722 0.15287308 -0.13993397
0.055327937 -0.086495936 0.039955594 -0.21337347 -0.083230205 0.062154677 -0.021483894 -0.07728073
0.103768244 -0.09239018 0.111896604 0.06709021 -0.11732983 -0.076963276 -0.00531328 -0.17204201
-0.076736994 -0.20148422 -0.20301837 0.060898185 -0.04127848 0.084772505 -0.05518773 0.2565057
0.13316733 -0.1366688 -0.2825518 0.054075994 -0.03966406 -0.001062176 -0.1358522 -0.16909106
-0.10822273 -0.05809859 0.07236378 0.22774161 -0.1722962 0.1745207 -0.056320876 0.051083893
0.026382359 -0.022803236 0.19790544 -0.15412009 0.26390547 0.0039033955 0.03700098 -0.28296408
-0.13736276 -0.18926598 0.06150978 -0.06253093 0.007731085 -0.0937706 -0.108546376 -0.2944138
-0.28651398 -0.23767391 -0.298676 0.15385516 -0.12148111 -0.14081472 0.109185606 -0.033079438
0.0043171183 0.1521596 -0.071354635 0.21209536 0.08138735 0.037544377 -0.14025976 -0.03286848
-0.081081785 -0.31349576 0.1084571 0.07558324 -0.053644244 0.03824053 -0.398953 -0.03639391
-0.17633685 0.027854253 -0.017970704 0.12152557 -0.061879598 -0.306682 0.012067747 0.034977786
0.05906906 -0.27855182 -0.3469922 -0.2606866 0.11054504 -0.0720057 -0.13906896 -0.016922275
-0.19473581 0.14670669 -0.005381134 0.08383649 0.21553317 -0.09914548 0.1101286 0.06525667
-0.22594696 -0.04779428 0.017114427 -0.1887211 -0.10781657 0.07919383 -0.20155287 -0.021475868
-0.0060967095 -0.22334561 0.093559116 -0.108427346 0.22640139 -0.034618974 -0.040245235 -0.12922192
-0.0352119 -0.2035149 -0.23678668 -0.14631851 0.09464458 0.077467516 0.05170529 -0.20986807
-0.19606681 0.16373843 -0.0054281764 0.14721522 -0.20966694 -0.20119745 0.09211219 -0.039072488
-0.094209485 -0.08446343 -0.07601992 -0.22976163 -0.1971652 0.22989169 0.09804855 -0.13773829
0.14285104 0.10666648 0.00904841 0.15584536 -0.14299144 -0.29068857 0.1545418 -0.17783383
-0.048837446 -0.15790208 0.101438574 -0.06813256 -0.23212767 -0.26340944 -0.23993082 -0.08521095
0.1890195 -0.06541734 0.1602946 0.21751663 -0.13155524 0.06065732 0.061308306 -0.12736
0.051096592 -0.24102487 0.00041652724 0.08111572 0.029804626 -0.3745416 -0.057729356 -0.13019948
-0.024079772 -0.07545762 -0.1497594 0.03880055 -0.24525361 -0.01330701 0.1204766 0.18405093
-0.24122426 -0.21531323 -0.045975145 0.06013133 -0.16832547 -0.18491441 0.29469946 0.024367975

layers.2.weight f4 [300, 400]
00000000: f421 3fbd b562 043e c843 953d 6c20 1e3e
00000010: e9df 8abd e80d dfbd 30ac 053e 796e 42be
00000020: 5ea9 23bd 916a a73d 6257 ba3d 13df 1d3d
00000030: 05f0 ecbc ffd1 0e3c 1a61 873c 9986 313d
00000040: 0134 fc3d d81b c23d b8b4 71bd 21e4 9dbb
00000050: 8a15 873d 0542 8fbd 123c 093c 3efc e73c
00000060: 6229 513d cbff 84bd 1ece 09bc b591 bfbc
00000070: bfa0 1dbc 1aca d0bd 6dde f5ba 36bc b23d
00000080: e3bf 14be 7c24 1cbe 61c1 cbbd 75b7 87bd
00000090: e077 3dbc fc95 dfbd bad7 4cbe ca96 00bb
000000a0: a5cc c83c 49fd 67bd 8267 6dbd dc78 48be
000000b0: fb83 3ebe e495 76be df05 123c 67d2 e4bc
000000c0: aa74 abbd f1a7 3b3c dc40 f1bd e015 ef3d
000000d0: 2035 6cbd f88f 30bd 9d6b dc3d ccfd 68bd
000000e0: f1f1 cbbd a023 e63d 12fa 243d c972 98bd
000000f0: 4881 f93d ed6d e33d 4648 4dbd d8be 11ba
00000100: a4f8 5bbe a83e 583e b140 64bd d028 2f3e
00000110: 93ca 023e d5e9 7bbe e2e3 573e 0c73 15be
00000120: 7e25 553d 125e b4bc 51e0 023e d66b 18bd
00000130: edee 87bd ed4c b43d 4439 9d3c 75af 823d
00000140: 36ce d0bb cffa 053d 2807 17be 20c7 3abe
00000150: 96d2 58bd 23a0 e5bc 4fbf f3bd 99bf c1bd
00000160: 978f e43d ed97 95bd 38ea b23c b4a4 733d
00000170: 9813 58be 7e39 093e b27e 81bd 288d ad3d
00000180: 2b40 9abc 9ae8 21bd 5bb2 aebc e773 4e3c
00000190: f40a 3d3d 75b5 093e 130e b83d 75c8 423c
000001a0: 774f 96b9 9d24 d03d fe29 d0ba 666b 41bd
000001b0: 6dce 253e 5e88 cd3d 0933 7f3d 5465 febd
000001c0: e007 8b3d 57ea 143c 2906 353d 4ea0 7a3d
000001d0: d9fe 1c3e 0b62 913d 47a7 783c 611f 343d
000001e0: 8087 1b3e 83e8 8abd 9125 7b3d a15e 0abe
000001f0: 1353 023d 2022 a2bb 0bcc 5ebd c66d 5dbc
00000200: eaf6 26bd b0ae bdbb 768b 8dbd d24c 753c
00000210: 807c 22be 6c7b 543e fd0f 0abd d878 57be
00000220: d6a4 9abd 19da 2a3d 9cb1 b73d 6391 a2bd
00000230: f92e 83bd 86b5 a7bd a939 843c 618d 973d
00000240: 6598 4e3d a042 f5bd c132 8dbb 16d3 243e
00000250: 9273 ea3d 37c4 1dbe e1c2 bc3d 6164 e2bc
00000260: 1af0 5dbd b37b c13d 4c07 543b 4484 b43d
00000270: 0bbc 923d 88cf 05bd 6a82 c9bb d914 96bd
00000280: 59ac a3bc 527f f13d d443 e3bd 9f57 eabd
00000290: b56f 983d ec1a da3d e678 203e b431 54be
000002a0: 7ba7 babd 387b 203e 2980 b13d 8d9e b83b
000002b0: ca7f 7c3d c2f8 85be fdd2 a43d d72f 9a3d
000002c0: 4882 be3d e854 4bbd 993f d93d 4b8f ec3c
000002d0: bcfe 1abe 9c9a 03bd 7f12 5dbe 5273 90bc
000002e0: 342a a83d 14fe 38bc cd54 b2bc d625 3fbd
000002f0: 6378 2b3d 3cd1 10bd e941 0cbe 846f 1b3e
00000300: 7c2b 92bd d21a bfbc c3f7 013e 4c3b 58ba
00000310: 0e55 62bc c35d 11bd cd5d 4ebd 0720 4c3c
00000320: 017f 34be 4a1e 92bd f020 f43d d558 1dbe
00000330: 2d41 4bbd 0d40 d8bd e788 adbe 5e17 773d
00000340: edba 8abd f0ca fdba 7722 55be 5fe7 81bc
00000350: 6adf a53a e65f 6739 d42b 8e3c 1aa3 7bbd
00000360: 6f60 ae3e 200f 943c db37 143e bbf0 febd
00000370: 1247 9c3d 9335 18be c3e3 e13d 0622 883a
00000380: 49df 1abe 7c8f 4dbc 4ba0 dabd 088a 3f3e
00000390: 53ab c93c f265 babd 4677 623d 0808 99bc
000003a0: 16ef a93d eeef 893d f62a 39be f202 c93d
000003b0: c13c 1dbe c143 b23d f034 e23d bae6 efbd
000003c0: fd12 72bc fa82 66be ae66 0ebe 1441 3a3c
000003d0: 4d92 3e3a 184a 2bbd 1567 a33b 2b1f 20be
000003e0: a4ba 1cbc 33aa 0c3e 5f71 85bd f7e9 8ebd
000003f0: 9665 2b3c 4468 7ebc bf6b 00be 33d5 803c
-0.04666324 0.12928279 0.07288319 0.15442055 -0.06780989 -0.10891324 0.13053966 -0.18987454
-0.039956443 0.08174623 0.09098698 0.03854282 -0.028923044 0.008717059 0.016525794 0.043341253
0.123146065 0.09477967 -0.059010237 -0.004818455 0.06595905 -0.06995014 0.008376138 0.02831852
0.051064856 -0.06494101 -0.008410959 -0.023384908 -0.009620844 -0.10194798 -0.0018758305 0.08727305
-0.14526324 -0.15248293 -0.099489935 -0.066267885 -0.011564225 -0.10917279 -0.20004168 -0.0019621127
0.024511645 -0.056638036 -0.05796004 -0.19577354 -0.18605034 -0.24080616 0.008912533 -0.027932359
-0.08371861 0.011453615 -0.11779949 0.11674094 -0.05766785 -0.04310605 0.10762713 -0.056882665
-0.09958256 0.11237264 0.040277548 -0.074437685 0.121828616 0.11104951 -0.050117753 -0.0005559749
-0.21481568 0.21117651 -0.055725757 0.17105412 0.12772588 -0.24600919 0.21083024 -0.14594668
0.05203771 -0.022017512 0.12780882 -0.037212215 -0.06637368 0.08803735 0.019192345 0.06381122
-0.0063722385 0.032709893 -0.14748824 -0.18240023 -0.052935205 -0.02803046 -0.119017236 -0.094603725
0.111602 -0.07304368 0.0218402 0.059483245 -0.21101224 0.13400838 -0.06322993 0.08474189
-0.018829426 -0.039528467 -0.02132528 0.012600875 0.046153024 0.13448127 0.089870594 0.011888613
-0.00028669435 0.101632334 -0.0015881655 -0.047221564 0.16192026 0.100357756 0.06230453 -0.124216706
0.067886114 0.009089074 0.044195328 0.061188035 0.15331592 0.07098778 0.015176601 0.043975238
0.15188408 -0.06782629 0.061315123 -0.1351266 0.031817507 -0.0049479157 -0.05439381 -0.013514942
-0.04076282 -0.0057886466 -0.06911366 0.014971929 -0.15867805 0.20750207 -0.033706654 -0.21042192
-0.07550971 0.0417119 0.08969423 -0.079378866 -0.06405444 -0.0818892 0.016140776 0.07400013
0.050438304 -0.11975598 -0.004309029 0.16096148 0.114478245 -0.15406881 0.09216858 -0.027635755
-0.054184057 0.09447422 0.0032352982 0.0881429 0.071647726 -0.03266862 -0.00614958 -0.07328195
-0.019979643 0.117918625 -0.110969216 -0.11442494 0.074431814 0.10649666 0.15671119 -0.20722085
-0.091139756 0.15672004 0.08667023 0.005634135 0.061645307 -0.2616635 0.08048055 0.07528656
0.09302193 -0.04964152 0.106078334 0.028876921 -0.15136236 -0.03212987 -0.21589087 -0.017633114
0.082111746 -0.011291046 -0.021768952 -0.046666943 0.041862857 -0.03535579 -0.13697018 0.15179259
-0.071372 -0.023328219 0.1269217 -0.0008248582 -0.013814224 -0.03548981 -0.050382424 0.012458808
-0.17626573 -0.071346834 0.11920345 -0.15365918 -0.049622703 -0.10559092 -0.3389351 0.06032502
-0.067739345 -0.0019362848 -0.20813929 -0.015857397 0.0012655084 0.00022065602 0.017354883 -0.061434843
0.34057948 0.018073618 0.14474432 -0.124482594 0.07630743 -0.14864187 0.1102977 0.0010386116
-0.15124239 -0.012546416 -0.10675105 0.18704998 0.024617827 -0.09101476 0.05528953 -0.018680587
0.08297555 0.06735216 -0.18082795 0.09815015 -0.15355207 0.08704329 0.11045253 -0.117139295
-0.014775035 -0.22510901 -0.13906357 0.011368055 0.00072697253 -0.04181871 0.0049866536 -0.1563689
-0.009565983 0.13736801 -0.065157644 -0.06978219 0.010461232 -0.015527789 -0.12541102 0.015726661

layers.2.bias f4 [300]
00000000: d0e0 0a3c 3c31 243d a4f5 1fbe f82e 3f3d
00000010: e32a 12be ed2e 60bd 8b05 c8bd 679b 98bc
00000020: 5b72 2b3b 56ae debb 3f9e b5bc fa63 21be
00000030: 0e25 bfbd 6d25 83bb 2b1e 3cbb a3f5 1fbd
00000040: 895e aabd 8a0d a03c 2d41 563d ccd0 1e3d
00000050: ed50 903d 55c1 c93a dbd3 bdbc 99c2 163c
00000060: 4545 84bd 66f7 6fbc 8d24 1e3d 59bb 453c
00000070: 8db4 ee3d ce9d 7bbd 3e2d fdbd c824 7d3a
00000080: 5d7a 883b 8122 d2bb 5ba0 afbc e36c 8abd
00000090: e2e5 d4bb 54be 483c bb08 a6bd 8f86 b33d
000000a0: d226 38bc 9db7 a3bc c6b2 30bc b0c1 3a3d
000000b0: 599f bbbb 69bb 533d 83d3 303b 5f7e 24be
000000c0: 91fa a1bd 5c6b cdbd 8776 d23a ffb7 43bd
000000d0: 19fb d73b 3dd5 003e 607e 663c 9dfe 88bd
000000e0: 2c86 a7bd dafe c4bd 5da7 8fbd 3883 d8bb
000000f0: 62b0 383d d419 583d 6273 573c 641c 87bd
00000100: 3adb 553d 5dd3 233c 9405 c93d c125 9fbb
00000110: de35 e23b de7d 2fbd 16e6 fabc cda0 29be
00000120: d0aa a83b bd53 c4bd 631a dabb 5eb0 bd3b
00000130: 2582 7fbd 2b31 bb3d ae62 a83b f275 06be
00000140: ae5f 72bd 9f53 89bd 79d3 8ebd af43 833d
00000150: b1b3 af3c 6580 09be 2c0c 93bc 23d6 69bd
00000160: 7497 beba 9544 743c 9ccd c5bc bec1 b4bc
00000170: 304c b73d 6fbc b23d 410a 5ebd d571 1d3c
00000180: 9b00 683c c47d 0fbd f4fe ecbb 020e 0abd
00000190: 93fd f93b c449 2a3c 7e61 d9bd 323f 91bd
000001a0: 42f7 ca3c 3609 dfbd 71f6 02bd 3e47 943d
000001b0: 4309 c13b b87a b2bc c470 b138 e640 833c
000001c0: ae2d df3d 96c4 5abd 3fe5 c1bc 89ab 413d
000001d0: 50c5 c53c 41aa aa3c cae5 34bd 7560 903d
000001e0: 5432 423d 35dc b3bd e408 0c3d 2c81 013b
000001f0: 7762 9d3c 65e1 003d 37dc f53a f856 f1bc
00000200: 85c1 bd3d e7ec 2dbc f3cb f4bb 5759 c6bd
00000210: ca9d a4bd 6784 c0bd e00f 0b3d 50fb 1bbb
00000220: cd2d a83c 1977 123e 026e 1d3d ee69 e3bc
00000230: 711e f2bd 8836 d8bb d1ad 92bb 6b0e 5a3d
00000240: 3f58 803a 484a 073d 83ee 69bb 4319 803c
00000250: e33d 96bd 78c5 2dbe e835 45bc 1bf0 b3bd
00000260: 42fd 87bd 439a ad3c b5f3 373d 2f97 debc
00000270: 7063 18bd 3dab 283d 2a19 03bd b9bd 92bc
00000280: 3f48 03bc bfb8 91ba b937 f7bc 3f88 a9bd
00000290: db6f a7bb e964 26bd 8b9a e3bb 715f 113d
000002a0: f7bf 47bd 67a6 da3b 4a36 5b3c c323 48bd
000002b0: 8d38 cbbd f0d6 803c c343 953d 465e 89bd
000002c0: 2820 9ebe d9db 193d e846 dcbc 4c52 01bd
000002d0: 5b6e 45bc 07dd 223d c7bb 41bc de0b 303c
000002e0: b09f 143d a6b8 1abc 4dcc f73d 180f f83c
000002f0: 2518 07bd eca4 88bd 95d4 42bd 25ed bc3c
00000300: 87e2 eabc efba babc cf7d 9a3d 52aa 5d3d
00000310: 3cbd 11bd be47 8dbd 9f4a e73c 792c c53d
00000320: 3cd8 35bd ca64 12bd 9ab1 46be 702d 143d
00000330: 33e4 803d 74d4 69bc aee5 ce3d a8f1 36bd
00000340: de3f 6dbd 72b5 143d 60bf 37bd 448e 943d
00000350: f540 9ebd f136 e53c e216 8cbd 9df6 b33d
00000360: fef4 d5bc 34b0 4fbd 4d88 343d 8860 eb3d
00000370: c5be debd 408f c6bd bebd 1ebe e9c4 12be
00000380: aebf 073d 5642 fabc ac5f f1bb 5507 a7bc
00000390: 995e b3bd 094e a5bc a991 743b a0b7 28bd
000003a0: 23d1 aabc d78b 493d 2815 ef3d a638 e8ba
000003b0: c694 1fbe 0185 9bbc d012 e73d b5f5 f8bd
000003c0: 4ca6 16be b93a 443d 99d8 8fbc 61d7 85bd
000003d0: 359f 80bc ed00 24be 0dcf 903d 6766 923c
000003e0: f4ea 15bc 2b2c 0b3d f31a e9bd 12a7 81bd
000003f0: d85d e7bb fce1 d7bd 9080 29bd 482c e5bd
0.008476451 0.040086016 -0.15621048 0.046675652 -0.14274172 -0.054732252 -0.09766682 -0.01862879
0.002616069 -0.006795685 -0.022170184 -0.15760794 -0.093332395 -0.0040022642 -0.0028704505 -0.039052617
-0.083188124 0.019537706 0.05230825 0.038773343 0.07046685 0.00153927 -0.02317231 0.009201669
-0.064585246 -0.014646387 0.038609076 0.012068593 0.11655531 -0.06142979 -0.12362145 0.0009656665
0.0041649775 -0.0064128046 -0.021438768 -0.0675905 -0.0064971307 0.012252409 -0.08107134 0.087658994
-0.011239724 -0.019985015 -0.01078481 0.04559487 -0.005725783 0.0516924 0.002698154 -0.16063832
-0.0790912 -0.10030243 0.0016057052 -0.047782894 0.0065912125 0.12581344 0.014068216 -0.06689189
-0.08179888 -0.096189216 -0.07014344 -0.0066074394 0.045090087 0.052759007 0.013150068 -0.06597212
0.052211024 0.009999123 0.09815517 -0.0048567955 0.006903394 -0.042844646 -0.030627292 -0.16565247
0.0051473156 -0.09586284 -0.0066559776 0.005788847 -0.062379975 0.091402374 0.0051387167 -0.1313093
-0.05917328 -0.067054026 -0.06973929 0.06409394 0.021447988 -0.13427885 -0.01795014 -0.057088982
-0.0014540986 0.014908929 -0.024145894 -0.02206504 0.089500785 0.08727347 -0.054208998 0.009609659
0.014160301 -0.03503205 -0.007232541 -0.033704765 0.0076291054 0.010393564 -0.10614298 -0.07092132
0.024776105 -0.10890429 -0.031973306 0.07240151 0.0058909967 -0.021787032 8.461022e-05 0.016022157
0.108973846 -0.053410135 -0.023668883 0.04728273 0.024141937 0.020833137 -0.044164456 0.07049648
0.047411278 -0.087822355 0.034188166 0.001976083 0.01921199 0.031464953 0.0018757646 -0.029460415
0.092654265 -0.010615564 -0.0074706017 -0.09685009 -0.080379084 -0.09400254 0.033950686 -0.0023800917
0.020529652 0.14303245 0.03843499 -0.027760472 -0.118222125 -0.0065982975 -0.004476287 0.053236406
0.0009791924 0.033029824 -0.0035695143 0.015637046 -0.07336023 -0.1696986 -0.012036778 -0.08786031
-0.06640102 0.021191722 0.04491015 -0.0271717 -0.037204206 0.04117893 -0.03200642 -0.017912732
-0.00801283 -0.0011117681 -0.030177938 -0.0827794 -0.0051097698 -0.04062358 -0.006945913 0.03549141
-0.048767056 0.0066726687 0.013379643 -0.04886223 -0.099228956 0.01572749 0.07288315 -0.06707434
-0.30883908 0.03756318 -0.02688928 -0.031572625 -0.012050237 0.03976157 -0.011824555 0.010745017
0.036285102 -0.009443438 0.12099514 0.030280635 -0.03298201 -0.06672081 -0.047566015 0.023062298
-0.02867247 -0.022794215 0.07543527 0.05411751 -0.03558086 -0.06898449 0.028233824 0.09627623
-0.04439567 -0.03574065 -0.19403687 0.036176145 0.062935255 -0.014271844 0.10102402 -0.044664055
-0.057922237 0.036305852 -0.044860244 0.072536975 -0.07727233 0.0279803 -0.06840302 0.08787272
-0.026117798 -0.05070515 0.0440753 0.11493021 -0.1087623 -0.096952915 -0.15502068 -0.14332928
0.033141784 -0.03054921 -0.0073661413 -0.020389238 -0.087582774 -0.020178812 0.0037318266 -0.041190743
-0.020851677 0.049205627 0.11673957 -0.0017717078 -0.15584096 -0.01898432 0.11282885 -0.1215624
-0.14711875 0.047907565 -0.017559336 -0.06535221 -0.015700916 -0.16015978 0.07070742 0.017871095
-0.0091502555 0.03397767 -0.11382093 -0.06330694 -0.0070607476 -0.1054115 -0.041382372 -0.111900866

layers.4.weight f4 [4, 300]
00000000: 6836 95be 9e4a 00bd 9484 ae3e 0286 3f3c
00000010: 77d3 9c3e f124 c4be 55d3 423e 52a0 39be
00000020: 6aff 68be 7e0f 453e e628 813e e9b8 cd3e
00000030: 2d8a 8a3d 2a7c 223d fcf3 1fbd 711f 6c3e
00000040: 2cce 813d 7bcc aebe e4a5 f2be ad9f a73e
00000050: 02bf 953c 0f15 913e 227a 0d3e 568d 29be
00000060: 107e 0e3e df07 f13d a025 6bbe 3981 a53d
00000070: a773 8b3e be1d 933e 8704 473d 671e fd3e
00000080: b8a4 a03e 9e8e 86be b413 033e 22b2 863e
00000090: 382d 49be b009 f1bd e700 6e3c 3bca 573d
000000a0: aca5 d23b a939 acbe 82b0 043e c5e1 74be
000000b0: 0562 673e 0d40 103e 1d43 6abd 9043 ab3e
000000c0: 2fc0 64be 94e2 703e 8a70 b73e 3ca1 7d3e
000000d0: 8109 8e3d b59f 65be d3c4 a63c b935 48be
000000e0: 36b8 843e be6d f53e 8666 bfbe 9872 99be
000000f0: a98f 593c f5a1 8dbc 17ea 8c3e 5a0e fdbd
00000100: d1d4 eabe a1bc 3abe b1dd ca3d c740 113f
00000110: 069d d73d 5031 e8be 3416 12be 6881 44bd
00000120: 2311 673c aa13 83be 82a3 163e 51ca 0bbf
00000130: ea13 dfbd 423b 04bf 0548 12be 5ba8 a03e
00000140: 680c 13be f902 a7bd 3855 f63e b990 c9be
00000150: 0112 82be 1f63 52be 55f8 73bd b2f1 433d
00000160: 9006 91bd 07b4 91bd f72e a93e 12be df3d
00000170: e932 863d 7aeb 803e e6f6 283c 2ef1 71be
00000180: 60ad 9abe b1c8 693b 1c33 e13e 8d1f bc3e
00000190: 3363 d13c 0400 b2be f9a3 323f d8d6 0fbd
000001a0: 064c 2fbe fce7 b7be e3cf a13e 7f6e 88be
000001b0: fec0 bcbe b29d bdbe 253a 213d 56f2 383d
000001c0: b4e9 d33d acee f6bd 9151 753e 8833 fdbb
000001d0: 6b39 3b3b 83b7 dabd 1cd1 26be f21b 02be
000001e0: c552 01be 1c7b cd3e 01cd 9fbe ee4c 0e3e
000001f0: 2bd5 4b3b 06e9 09be 603c 043d ef1d 0bbe
00000200: ba45 873e a53b 203b 5052 b63d 3d30 73bc
00000210: 5547 c4be c1e5 c2bd d267 6f3e 78e6 873d
00000220: ee37 6cbd 8ec3 9fbc e9c1 1d3d 4d3c 9d3b
00000230: 6f84 0d3d b6aa 21bd 6af3 b9bd decf e4be
00000240: 1716 94be ecea c03e 5eb8 cabe 738c b5bd
00000250: a3d5 623c 3526 9e3e f864 8a3d 0978 7a3e
00000260: 4272 ad3c e933 393e 578e e53d 950d d53d
00000270: 606c 893e 5da3 b8bd cf51 523e 38b9 7f3e
00000280: 7013 75bd a61f 373d 019d e2bd 5456 13be
00000290: bbb5 bf3d df19 403e dcc6 a93e 4643 ef3d
000002a0: b40c 013e c584 d6be 4a1f 613e 90c5 a2be
000002b0: ab63 0f3f 1af6 34bd 3de1 b93c 903f 3abe
000002c0: 4b5a bd3e 9970 eebe 754d 58be a772 07bd
000002d0: 600d a6bd 8d23 8fbe 0f31 a63e b09d 853e
000002e0: 19ef 23bd e383 aabd afed 043f 010d 20bd
000002f0: 1cc9 dd3d 87a0 53be feaf b7be a141 b43d
00000300: ed1c 253e 975e 84be e88f 87be 25f4 2abe
00000310: f763 3b3d ba3a c7be 27e0 19be 57fe e33e
00000320: d5f6 753e af96 23be 93b5 6d3e eac5 9abe
00000330: d5ca fdbe f6de 1d3d dcaf 5c3d f453 31bd
00000340: 148f e0bd 4c2c 543d a186 f3bd fbb1 783e
00000350: aeb0 053e 8c65 003c 4462 823c 3e22 bbbb
00000360: 574c f73c 9a44 f5bd da05 ce3c 5236 543d
00000370: 73e8 823d 850e b0be 6133 5e3d d165 2dbd
00000380: a27d 6ebd d803 bdbe 52a2 bf39 4ea4 a13d
00000390: aa74 a13d dcfe e03e ac22 1b3d a9b7 c03d
000003a0: 4a72 8f3e e535 f8bc 8282 cebc 7430 8e3d
000003b0: 4d31 0a3c df00 d73c f070 2c3e 196b 883e
000003c0: 374d 813d 8b50 5c3d 91e8 98be 9e4a e93d
000003d0: 523f 0b3e b0d5 37bd 9bb8 9fbe 0575 33bd
000003e0: 1694 1bbe 7da1 0b3e 5f63 293e 648a 993e
000003f0: 147e 093e f940 cf3e cc74 d93e 428a a73e
-0.2914307 -0.03132116 0.34085524 0.011689665 0.30630085 -0.38309434 0.1902593 -0.18127564
-0.22753683 0.19244191 0.25226516 0.40180138 0.06764636 0.039669193 -0.03905104 0.23058869
0.06338152 -0.3414038 -0.4739219 0.3273901 0.018279556 0.2833638 0.13816121 -0.16557822
0.13915277 0.117690794 -0.22963572 0.08081288 0.27236673 0.2873363 0.048588302 0.49437258
0.3137567 -0.26280683 0.12800485 0.2630778 -0.19646156 -0.11769426 0.014526582 0.052683096
0.006428441 -0.3363774 0.12957957 -0.23914249 0.22595985 0.14086933 -0.05719291 0.33449984
-0.22338937 0.23523933 0.35828048 0.24768537 0.069354065 -0.22424205 0.020357525 -0.19551744
0.25921792 0.4793529 -0.37382907 -0.2997024 0.01327888 -0.017289141 0.27522346 -0.12356253
-0.4586549 -0.18236019 0.099055655 0.5673947 0.10527997 -0.45350122 -0.14266282 -0.047974974
0.014103207 -0.2560094 0.14710811 -0.54605585 -0.1089247 -0.5165292 -0.14285286 0.31378445
-0.14360201 -0.08154864 0.48111892 -0.39368227 -0.2540436 -0.20545624 -0.059563 0.04783792
-0.0708133 -0.071144156 0.33043644 0.10924925 0.06552679 0.25179654 0.010312771 -0.23627159
-0.302104 0.00356726 0.43984306 0.3674282 0.025559997 -0.34765637 0.6978145 -0.035117
-0.17118844 -0.35919178 0.31603917 -0.26646802 -0.3686599 -0.37034374 0.03936209 0.045152985
0.1034731 -0.12057242 0.23956896 -0.0077270903 0.002856816 -0.10679533 -0.16290706 -0.12705973
-0.1262923 0.40132987 -0.31211093 0.13896534 0.00311024 -0.13467798 0.03228414 -0.13585638
0.26420385 0.0024449613 0.089024186 -0.014843044 -0.38335672 -0.09516478 0.23379448 0.06635755
-0.057670526 -0.019502427 0.038515005 0.004798448 0.034550127 -0.039469443 -0.09079631 -0.4468984
-0.28923103 0.3767923 -0.39593786 -0.08864679 0.01384488 0.30888525 0.067575395 0.24459852
0.021172646 0.18086208 0.1120879 0.10402981 0.26840496 -0.09015534 0.2053902 0.24972999
-0.05983299 0.044707917 -0.11065102 -0.143884 0.09360834 0.18759869 0.3315953 0.11682753
0.12602502 -0.4189817 0.21984592 -0.31791353 0.56011456 -0.044180013 0.02269041 -0.1818831
0.3698295 -0.4657028 -0.21123298 -0.033068325 -0.0810802 -0.2795681 0.32459304 0.2609687
-0.040022943 -0.08325937 0.51925176 -0.0390749 0.10829374 -0.20666705 -0.3587646 0.0880158
0.16124316 -0.25853416 -0.2647698 -0.16694696 0.04574963 -0.38911992 -0.15026914 0.44529983
0.2401994 -0.1597545 0.23213796 -0.3022912 -0.4956881 0.03854271 0.05387865 -0.043292955
-0.1096479 0.051800057 -0.11890913 0.24286644 0.13055679 0.007836711 0.015915997 -0.005710869
0.030187769 -0.11975975 0.025149275 0.051809616 0.063919924 -0.34386078 0.054248217 -0.042333428
-0.05822528 -0.36916995 0.00036551297 0.07892667 0.0788358 0.43944442 0.037874863 0.094100304
0.28016883 -0.030299136 -0.025208715 0.069428355 0.008434606 0.026245533 0.16839957 0.2664421
0.06313556 0.05378775 -0.29864934 0.11391185 0.13598374 -0.044881523 -0.3119553 -0.04381277
-0.15193209 0.13635822 0.16541813 0.29988396 0.13427001 0.40479258 0.4247192 0.3272267

layers.4.bias f4 [4]
00000000: d080 55bd ccf1 fb3b 87d8 b73b 1851 813d
-0.0521248 0.0076887365 0.005610529 0.063142955
