checkpoint_284.pth (torch_old, 541618 bytes, 6 tensors)

layers.0.weight f4 [400, 33]
0	0xbaa68653	-0.0012704827
1	0x3d47c86c	0.04877512
2	0xbe34853c	-0.1762895
3	0xbd8d17cd	-0.06889305
4	0xbf34e75d	-0.7066553
5	0x3ea9ef90	0.33190584
6	0xbe2fa736	-0.1715363
7	0x3da1776b	0.07884105
8	0x3d31bf8a	0.043395557
9	0x3e3a735e	0.18208072
10	0xbd4ff0a6	-0.05076661
11	0xbca97cd1	-0.0206894
12	0xbdf486c5	-0.11939768
13	0xbe411dc3	-0.1885901
14	0xbd2f3004	-0.0427704
15	0x3d703c66	0.05865135
16	0x3e7460b2	0.23865011
17	0x3e88750d	0.26651803
18	0xbf3c643a	-0.73590434
19	0xbed37416	-0.41299504
20	0x3d192d11	0.037396494
21	0xbcbdb215	-0.023156205
22	0x3d8b9f97	0.06817549
23	0x3c082251	0.008308963
24	0x3d8553d2	0.06510128
25	0xbc966832	-0.018360231
26	0x3d41b2f8	0.04728982
27	0xbe48ef9c	-0.19622654
28	0xbe4213aa	-0.18952814
29	0xbd34832c	-0.044070408
30	0xbd07a5ab	-0.033116978
31	0x3e1a034e	0.15040323
32	0xbf8a0318	-1.0782194
33	0xbe58077b	-0.21096604
34	0xbe11d271	-0.14240433
35	0xbe26ae87	-0.16277514
36	0xbe8471a1	-0.25867942
37	0x3ebdc5fa	0.37065107
38	0x3e1a9d31	0.15099026
39	0x3c37b412	0.011212366
40	0x3e5cc962	0.21561196
41	0xbbd0ce4d	-0.006372249
42	0x3ce146fc	0.027499668
43	0x3d5feaa7	0.05466714
44	0xbd4556c5	-0.048178453
45	0x3e068193	0.13135366
46	0x3e5888e9	0.21145977
47	0x3eac5eee	0.33666176
48	0xbdaae8a9	-0.08345158
49	0xbc3a1f8a	-0.011360059
50	0x3dd7ab99	0.105307765
51	0xbdb54392	-0.08850779
52	0x3e0c5226	0.13703212
53	0x3e85d2c8	0.26137376
54	0x3e9abf6a	0.30224162
55	0xbd74c9d2	-0.059762783
56	0x3e3c13da	0.18366948
57	0x3e2619dc	0.16220802
58	0xbd86da88	-0.0658465
59	0xbe7cf026	-0.24700984
60	0x3e1fb006	0.15594491
61	0x3e15db94	0.14634544
62	0xbdd32e22	-0.103115335
63	0xbcc9785a	-0.02459352
64	0x3dc3b6f0	0.09556377
65	0xbe743aa6	-0.23850498
66	0x3c8bf4bc	0.017084472
67	0x3df19050	0.117951035
68	0x3dd9c4c2	0.10633232
69	0x3e948adc	0.2901219
70	0xbe3f3a6c	-0.1867463
71	0x3e180250	0.14844632
72	0x3e679815	0.22616608
73	0x3dac65ca	0.08417852
74	0x3e3ab7ae	0.1823413
75	0xbe145afb	-0.14487831
76	0xbdbbbe88	-0.091672
77	0xbcb56a5f	-0.022145448
78	0xbd1496cc	-0.036276624
79	0xbdcdd235	-0.100498594
80	0xbd99ae52	-0.07503952
81	0x3e80b1fc	0.2513579
82	0x3e6746ae	0.22585556
83	0xbf0db352	-0.55351746
84	0xbcc2387c	-0.023708574
85	0x3f0e7690	0.5564966
86	0xbb9d1f9e	-0.004795029
87	0xbde2d768	-0.11076242
88	0x3c8835f3	0.016627287
89	0xbcfa9418	-0.030588195
90	0xbd552cf2	-0.052044816
91	0x3d9e4c8f	0.07729446
92	0x3e1e3af0	0.1545217
93	0x3df64aee	0.120260105
94	0xbe30174b	-0.17196386
95	0xbde74482	-0.11292364
96	0x3d020b10	0.03174883
97	0x3d153c8c	0.036434695
98	0xbf843b7c	-1.0330653
99	0x3d0a7380	0.033801556
100	0x3ea2fd52	0.31833893
101	0x3e980c72	0.29696995
102	0xbf0900e7	-0.53517
103	0x3de6ed99	0.11275787
104	0xbe6e1bae	-0.23252746
105	0xbeb8c94b	-0.36091074
106	0xbdce62a1	-0.10077406
107	0xbecd40be	-0.40088457
108	0x3da211f5	0.07913581
109	0xbd6fb5e8	-0.05852309
110	0xbbdab3b2	-0.0066742534
111	0x3e09972d	0.13436575
112	0x3d5dc05d	0.05413853
113	0x3e99c74b	0.3003486
114	0x3e6cb7cc	0.23116988
115	0x3ceae313	0.02867273
116	0xbe2b20c9	-0.16711725
117	0xbd07aead	-0.03312557
118	0x3ee23854	0.441836
119	0x3e0e9787	0.1392499
120	0x3de46927	0.11152869
121	0x3ca95202	0.020668987
122	0xbdd6765f	-0.10471796
123	0x3dff7d6a	0.12475093
124	0xbe837a32	-0.25679165
125	0x3c36fe85	0.011169081
126	0x3cba2f7c	0.02272772
127	0xbdbde77c	-0.09272668
128	0xbd79705e	-0.060898177
129	0xbe56003d	-0.20898528
130	0xbd17abac	-0.037028953
131	0x3ec39a80	0.38203812
132	0xbde2508d	-0.1105052
133	0x3d99146a	0.07474597
134	0x3d53a2a2	0.05166877
135	0x3c17e440	0.009270728
136	0xbec00394	-0.3750273
137	0x3ea05a92	0.313191
138	0x3e41bf85	0.18920715
139	0x3daa311e	0.083101496
140	0x3e921519	0.2853172
141	0x3deb8b2d	0.11501155
142	0xbdf39c5b	-0.11895057
143	0xbcdc97a7	-0.026927782
144	0xbd79c4c8	-0.06097868
145	0xbd9689eb	-0.073505245
146	0x3ee9a4c0	0.45633507
147	0xbd7c3777	-0.061576333
148	0x3e194f89	0.14971747
149	0xbf0ae5be	-0.5425681
150	0xbee1bbf1	-0.440887
151	0xbd9b2fb5	-0.07577459
152	0x3d34334b	0.04399423
153	0x3c6567fd	0.0140018435
154	0x3e096d4d	0.13420601
155	0xbe75f891	-0.24020602
156	0x3e543d25	0.2072645
157	0x3e0010fc	0.12506479
158	0x3d3bcff4	0.045852616
159	0xbc700b12	-0.014651077
160	0xbc174e0c	-0.009234916
161	0xbd0bff28	-0.034178883
162	0xbe593af9	-0.21213903
163	0xbe19e99e	-0.15030524
164	0xbba0d24e	-0.004907883
165	0xbe84df07	-0.25951406
166	0xbce680cc	-0.028137587
167	0xbdc4befb	-0.09606739
168	0xbf35d7bf	-0.7103233
169	0x3e6f081a	0.23342934
170	0x3f64a7e2	0.8931867
171	0x3d5bed85	0.053693313
172	0x3b8193f5	0.0039544054
173	0xb9d132d0	-0.00039901445
174	0xbe3d3682	-0.18477824
175	0x3cb27188	0.021782652
176	0xbd406015	-0.04696663
177	0xbd6f7dec	-0.058469698
178	0x3de9b7ca	0.11412008
179	0xbe2b8c2f	-0.16752695
180	0x3d3451d8	0.044023365
181	0xbf05487f	-0.52063745
182	0x3e6d38ad	0.23166151
183	0x3eb6c857	0.35699722
184	0xbef579c6	-0.47944468
185	0xbd6f8d49	-0.05848435
186	0xbd257554	-0.040395096
187	0xbdbde89c	-0.09272882
188	0x3dc871e4	0.09787348
189	0xbdf0832f	-0.11743771
190	0x3cce7da7	0.0252064
191	0x3e035f0f	0.1282923
192	0xbe024b4f	-0.1272404
193	0x3cbb33c9	0.022851842
194	0xbdfb511a	-0.12271328
195	0xbdbb2372	-0.0913762
196	0xbdcfbdaf	-0.10143601
197	0x3f6d148c	0.9260948
198	0xbdf03915	-0.117296375
199	0x3da63c73	0.081169985
200	0x3d8bee6d	0.068325855
201	0xbe0f5882	-0.13998607
202	0x3e1a1575	0.15047248
203	0xbe4e6ca1	-0.20158626
204	0xbd728d81	-0.05921698
205	0xbd2a4403	-0.041568767
206	0xbd197676	-0.03746649
207	0x3e67b508	0.22627652
208	0x3d722017	0.059112635
209	0xbd91c602	-0.07117845
210	0x3b910904	0.0044261236
211	0xbd82498b	-0.063616835
212	0x3d9a0516	0.07520501
213	0xbcbd36fb	-0.023097506
214	0xbe4e4c69	-0.20146336
215	0xbd7c3a71	-0.06157917
216	0xbf43e0d8	-0.7651496
217	0xbf0c8586	-0.5489124
218	0x3c836e86	0.016043913
219	0xbde573e4	-0.11203745
220	0xbcf8b89d	-0.030361468
221	0xbd11a0ad	-0.035553623
222	0xbd06da9a	-0.03292332
223	0x3da30039	0.07959027
224	0xbe586596	-0.21132502
225	0x3e102634	0.14077073
226	0xbdca945c	-0.098915786
227	0xbd4a66c8	-0.049414426
228	0xbde74c6b	-0.112938724
229	0xbcd32de0	-0.02577871
230	0xbd026eb9	-0.031843875
231	0x3ce5169e	0.027964886
232	0x3df813e9	0.121131726
233	0x3e5a56d6	0.21322188
234	0x3c88a829	0.016681748
235	0xbe0bf930	-0.13669276
236	0xbe727a22	-0.23679402
237	0x3d93f5e6	0.07224636
238	0xbe48b581	-0.19600488
239	0x3e6382ab	0.22217815
240	0x3e42211d	0.18957944
241	0x3ea29f73	0.31762275
242	0x3db96a86	0.09053521
243	0x3e2c1e21	0.16808368
244	0x3da79d1b	0.08184262
245	0xbd03cc28	-0.03217712
246	0x3e41073b	0.18850414
247	0xbeb46bfa	-0.3523863
248	0x3ed302d5	0.41213098
249	0xbcfc0b72	-0.030767176
250	0x3d771821	0.060325745
251	0x3de2fbe6	0.11083202
252	0xbd54917f	-0.05189657
253	0xbd9030d4	-0.07040563
254	0xbe0ce907	-0.13760768
255	0x3d813650	0.063091874

layers.0.bias f4 [400]
0	0xbd3b38b0	-0.04570836
1	0xbe18904e	-0.14898798
2	0x3dea1602	0.11429979
3	0xbd1e76ef	-0.038687643
4	0xbe50d3db	-0.20393316
5	0xbe19bd78	-0.15013683
6	0xbe511a42	-0.20420173
7	0xbe538b7d	-0.2065868
8	0xbcdf277e	-0.027240511
9	0xbdb656ea	-0.08903296
10	0x3e416a8a	0.18888298
11	0xbe7c7308	-0.24653256
12	0x3dd19e7e	0.10235308
13	0xbda39b2f	-0.07988583
14	0xbe83d8a9	-0.25751236
15	0xbccae19e	-0.024765786
16	0xbe29308f	-0.1652243
17	0xbd678ca6	-0.056530617
18	0xbd0825d6	-0.03323921
19	0xbdb80a0b	-0.089862905
20	0xbe0d6779	-0.13809003
21	0xbdc7b98f	-0.09752189
22	0xbd3a1b32	-0.04543609
23	0xbdbc8a11	-0.092060216
24	0xbddec9b9	-0.10878319
25	0xbe4eb0f9	-0.20184697
26	0xbe98188c	-0.29706228
27	0x3deb8d0f	0.11501514
28	0x3e2441fb	0.16040795
29	0xbcdda0ad	-0.027054155
30	0x3dc66ded	0.096889354
31	0x3c756689	0.01497806
32	0x3e4c7f10	0.19970345
33	0xbd953b50	-0.072867036
34	0x3ddddc1d	0.10832999
35	0xbdd492f1	-0.10379589
36	0xbd32e7c4	-0.04367806
37	0x3dd7fe4d	0.10546551
38	0x3d1eb597	0.038747396
39	0xbdf22a29	-0.11824448
40	0x3e313349	0.1730472
41	0xbdea928f	-0.11453735
42	0xbd910f88	-0.070830405
43	0x3d54ce50	0.051954567
44	0xbcbaa160	-0.022782028
45	0xbcd83c72	-0.02639601
46	0x3e219b7c	0.15781969
47	0x3d6aa968	0.057290465
48	0x3d4e9a17	0.05043992
49	0xbd15915b	-0.036515575
50	0x3d945251	0.07242263
51	0x3e757600	0.23970795
52	0x3dddbd5d	0.10827134
53	0x3cbb0a16	0.022831958
54	0xbe36d2bd	-0.17853828
55	0x3e0a5b8a	0.13511482
56	0x3c3f769c	0.0116859935
57	0xbdfa07ba	-0.12208505
58	0xbe805a06	-0.25068682
59	0x3dd11560	0.10209155
60	0xbe12a44b	-0.14320485
61	0xbdf07a28	-0.117420495
62	0x3c55c013	0.013046282
63	0xbdd21306	-0.10257535
64	0xbe0a8681	-0.13527872
65	0xbdbbf181	-0.091769226
66	0xbd25850a	-0.04041008
67	0xbe4ade19	-0.19811286
68	0x3d393914	0.04522045
69	0xbe188c56	-0.14897284
70	0xbd6db260	-0.05803144
71	0x3c71b1a1	0.014751823
72	0x3e32988e	0.17441007
73	0xbdafe15a	-0.08587904
74	0x3d932c30	0.071861625
75	0x3df14cf5	0.117822565
76	0xbe37a4fb	-0.17934029
77	0x3d593bda	0.053035595
78	0x3dbecbee	0.0931624
79	0xbc669047	-0.014072484
80	0x3d184ef6	0.037184678
81	0x3c9852ba	0.018594135
82	0xbe0aae1a	-0.13542977
83	0xbcdfe263	-0.02732963
84	0xbd85bc67	-0.065300755
85	0x3e145924	0.1448713
86	0xbc149da5	-0.0090707885
87	0x3da14271	0.07874001
88	0x3d122e6e	0.03568881
89	0xbe1b4499	-0.15162887
90	0xbe6d1a03	-0.23154454
91	0x3cdc23ae	0.026872482
92	0xbd06f357	-0.03294691
93	0xbcb8023b	-0.022462001
94	0xbd2b3263	-0.0417961
95	0xbe2b7f36	-0.16747746
96	0x3a1ffbd5	0.00061028945
97	0x3e4231ec	0.18964356
98	0xbd8add19	-0.06780452
99	0x3e349d26	0.17638072
100	0xbe567497	-0.20942913
101	0x3e61cd55	0.22050984
102	0xbdf3f426	-0.11911802
103	0x3e55ae0a	0.20867172
104	0xbba89991	-0.0051452597
105	0x3e39111f	0.18072937
106	0x3e6f760f	0.2338488
107	0xbddd7828	-0.108139336
108	0xbe128308	-0.14307797
109	0xbe24599d	-0.1604981
110	0xbd804606	-0.06263356
111	0xbe04e3bc	-0.12977499
112	0x3d9ef878	0.077622354
113	0xbdafbf10	-0.08581364
114	0xbc830bb0	-0.015996784
115	0x3ea505e0	0.32231045
116	0xbd70379b	-0.05864678
117	0x3c44562b	0.011983435
118	0xbe357e76	-0.17724022
119	0xbe0d2372	-0.13783053
120	0xbde8a794	-0.11360088
121	0xbe992713	-0.29912624
122	0xbe7952d5	-0.24348004
123	0x3daa706c	0.08322224
124	0xbdb92c9e	-0.09041713
125	0x3d718aea	0.05897037
126	0x3e64c8ac	0.22342175
127	0xbd012b86	-0.031535648
128	0x3d468c1e	0.04847347
129	0x3e1e87a3	0.15481429
130	0xbe5778dd	-0.210422
131	0x3d313753	0.043265652
132	0x3e054492	0.13014439
133	0x3e3503fa	0.17677298
134	0x3d30d4ec	0.043171808
135	0xbd2921d0	-0.04129201
136	0xbdfdef41	-0.1239915
137	0x3dbd932b	0.09256586
138	0x3d519160	0.05116403
139	0xbe2fc2ef	-0.17164205
140	0xbd8337c8	-0.06407124
141	0x3d473f8c	0.048644587
142	0x3e04f423	0.12983756
143	0x3d3f025b	0.046633106
144	0xbe746bed	-0.23869295
145	0x3c6ac571	0.0143293
146	0xbcf89e37	-0.03034888
147	0xbdc45667	-0.095867924
148	0xbe197034	-0.14984208
149	0xbdb71cad	-0.08941016
150	0xbdfb8403	-0.122810386
151	0x3cb8ef55	0.02257506
152	0xbcae600e	-0.021286037
153	0xbe5c7fd2	-0.21533135
154	0xbe0e76f9	-0.13912572
155	0xbe17d65b	-0.14827864
156	0x3cd2cecd	0.025733376
157	0xbe9f34be	-0.31094927
158	0xbc1a8e17	-0.009433291
159	0xbe28e926	-0.16495189
160	0xbde3adb5	-0.11117116
161	0x3db8b53e	0.09018944
162	0x3d68ef3f	0.056868788
163	0xbce56b3f	-0.02800524
164	0xbd0715f5	-0.032979924
165	0xbdf3043a	-0.118660405
166	0xbdc2c924	-0.09511021
167	0x3d3077ab	0.043082874
168	0xbdfeed1f	-0.12447571
169	0xbe054cd9	-0.13017596
170	0x3baac492	0.0052114213
171	0xbe3f610d	-0.18689366
172	0xbd91184c	-0.070847124
173	0xbdd0f686	-0.102032706
174	0xbe35243d	-0.17689605
175	0x3e0248fc	0.12723154
176	0xbe82deb1	-0.25560525
177	0xbe80da72	-0.2516666
178	0x3e083a61	0.1330352
179	0x3d25b535	0.040456016
180	0xbcbb786c	-0.02288457
181	0xbdd0e50e	-0.10199939
182	0xbe36a42d	-0.17836066
183	0xbe10467b	-0.14089386
184	0xbe06d2d0	-0.13166356
185	0xbe87eef1	-0.26549485
186	0xbe377af8	-0.17918003
187	0xbe382df2	-0.17986277
188	0x3cef7103	0.029228693
189	0xbc9bf50d	-0.019037748
190	0x3d9a2fa9	0.07528622
191	0xbe7dba82	-0.24778178
192	0xba62a829	-0.00086462736
193	0x3e3f8600	0.1870346
194	0xbcdc0309	-0.026856916
195	0xbc3d504d	-0.01155479
196	0xbd34c549	-0.04413346
197	0xbde3f19d	-0.111300685
198	0x3da60e7f	0.08108234
199	0xbc58d1c3	-0.013233605
200	0xbe059c23	-0.13047843
201	0xbdda4fa9	-0.10659725
202	0xbed75a04	-0.42060864
203	0xbdbef6f5	-0.09324447
204	0xbe9c9125	-0.30579486
205	0x3d8278d0	0.063706994
206	0xbd969eb8	-0.07354492
207	0xbe543dc7	-0.20726691
208	0x3e02bcd8	0.1276735
209	0x3e3f994f	0.18710826
210	0x3bd19fed	0.0063972385
211	0x3e35ffe8	0.17773402
212	0xbe1b01ec	-0.15137452
213	0xbe217e07	-0.15770732
214	0x3e431e3a	0.190545
215	0xbe668e81	-0.22515298
216	0xbd54b6df	-0.051932212
217	0xbdcfa213	-0.10138335
218	0xbdba9329	-0.091101
219	0x3e0a521f	0.13507889
220	0xbe823daf	-0.25437686
221	0xbe979d1b	-0.2961205
222	0xbe4ba4a1	-0.1988702
223	0xbe50469c	-0.20339435
224	0xbc7f58b2	-0.015585111
225	0xbe05cf29	-0.13067307
226	0x3d32321e	0.043504827
227	0x3d8c9b88	0.06865603
228	0x3ddf780a	0.109115675
229	0xbe821c43	-0.25412187
230	0x3d9f875a	0.07789488
231	0x3ca97bde	0.020688947
232	0x3e0b5a31	0.13608624
233	0xbe0847d9	-0.13308658
234	0xbdf6140f	-0.120155446
235	0x3e0babc6	0.13639745
236	0xbe1dfffb	-0.1542968
237	0xbe5a8350	-0.21339154
238	0xbe264b38	-0.16239631
239	0x3c5a90d4	0.013340194
240	0xbd4ca9a6	-0.049966477
241	0xbd8e0f0b	-0.06936463
242	0x3db5e24b	0.088810526
243	0x3e502fc1	0.20330717
244	0xbdf8ebc6	-0.12154345
245	0xbe187051	-0.14886595
246	0x3df257f5	0.11833183
247	0x3d72d699	0.059286688
248	0xbdd2f39a	-0.103003696
249	0xbe2866ba	-0.16445437
250	0xbd6385b3	-0.055547427
251	0xbbc09e17	-0.005878221
252	0xbe1fdcd7	-0.15611587
253	0xbe293971	-0.16525818
254	0x3e842b0b	0.2581409
255	0xbd613de1	-0.054990653

layers.2.weight f4 [300, 400]
0	0x3ca6f562	0.02038068
1	0x3d91fe1d	0.071285464
2	0x3e06b8ab	0.13156383
3	0x3dbf46b6	0.09339659
4	0x3a3bceba	0.00071642885
5	0xbdeae706	-0.114698455
6	0x3df7d1ce	0.12100564
7	0x3cf5fc19	0.030027436
8	0xbd3363b2	-0.04379625
9	0x3c330d84	0.010928515
10	0x3d99cc3f	0.0750966
11	0x3d921c74	0.07134333
12	0x3cc0e630	0.023547262
13	0x3bef084e	0.007294691
14	0xbcd5b99a	-0.026089478
15	0x3992300a	0.00027883082
16	0x3d052cd1	0.032513443
17	0xbe46c42f	-0.19410776
18	0xbe14b555	-0.14522298
19	0xbc94837c	-0.018129103
20	0xbd29f252	-0.04149086
21	0x3dc7ca53	0.09755387
22	0x3e62cb64	0.221479
23	0x3e0d86b7	0.13820921
24	0x3cb74669	0.022372441
25	0x3c5c1663	0.013433072
26	0x3d1a96e6	0.037741564
27	0xbc325410	-0.0108843
28	0x3e05cb0c	0.13065737
29	0xbd60a886	-0.054848216
30	0x3d399e74	0.04531713
31	0xbd8a5788	-0.067549765
32	0x3ce75289	0.028237598
33	0xbd96bd99	-0.07360382
34	0xbdae0da2	-0.08498694
35	0xbde1516d	-0.11001859
36	0xbcbf3809	-0.02334215
37	0xbc747860	-0.014921278
38	0x3c9c9b45	0.019117007
39	0xbd79bc7e	-0.060970776
40	0xbd213606	-0.03935816
41	0x3dbe069b	0.09278604
42	0x3d84f983	0.06492903
43	0xbe17dbe8	-0.14829981
44	0x3d299e61	0.041410808
45	0xbd51abea	-0.05118934
46	0x3ddab5f7	0.10679238
47	0xbd98460e	-0.07435237
48	0xbe1e392a	-0.15451494
49	0x3d474cf0	0.048657358
50	0x3d8bda22	0.06828715
51	0xbd70609e	-0.05868589
52	0x3aec2ab4	0.0018018098
53	0xbe19a1a0	-0.15003061
54	0x3c91edf9	0.01781367
55	0xbd8c45b9	-0.06849236
56	0xbd36556f	-0.04451507
57	0x3e0a023b	0.13477413
58	0x3d51a1f3	0.051179837
59	0x3dcc6cc5	0.09981684
60	0x3c245f12	0.010032432
61	0x3d6b16c4	0.057394758
62	0xbd937a1f	-0.07201027
63	0x3dfa1cbd	0.12212513
64	0xbdc9ed3a	-0.098597005
65	0x3dad72d1	0.08469165
66	0x3e177633	0.14791183
67	0x3ddd6376	0.10809986
68	0x3e0a44c8	0.135028
69	0xbd1a9857	-0.03774294
70	0xbc917d13	-0.017759835
71	0xbdb1b991	-0.08677972
72	0x3d2e76d4	0.042593792
73	0x3dde417e	0.108523354
74	0xbe2930d9	-0.1652254
75	0xbc4c2631	-0.012460277
76	0xbd228110	-0.039673865
77	0xbd290386	-0.041263126
78	0xbd1aa45f	-0.037754413
79	0x3e0ffa51	0.14060332
80	0xbdccd97f	-0.100024216
81	0x3d0e3c15	0.034725267
82	0x3c0de1bc	0.008659776
83	0xbd44b1e4	-0.048021212
84	0xbda6c698	-0.081433475
85	0xbe062ce1	-0.13103057
86	0xbdbf0553	-0.093271874
87	0x3d3dd26f	0.046343263
88	0xbd5d50d8	-0.054032177
89	0xbc278f17	-0.010226986
90	0xbd3fd1a5	-0.046830792
91	0xbdc25256	-0.094883606
92	0xbda4110a	-0.080110624
93	0x3cf7de7b	0.030257454
94	0xbdcf59bd	-0.10124538
95	0x3d001a5a	0.03127513
96	0x3d93ee26	0.072231576
97	0x3d23e17c	0.04000996
98	0xbd24f04c	-0.040268227
99	0x3c816bf9	0.015798556
100	0x3d991763	0.07475164
101	0x3ce2b70a	0.02767517
102	0x3adadc3c	0.0016697715
103	0x3d8e6004	0.06951907
104	0xbbe1630f	-0.006878264
105	0xbb2f0621	-0.0026706534
106	0x3e3c4d65	0.18388899
107	0xbc821a45	-0.015881667
108	0x3db2734a	0.08713396
109	0x3e14a9eb	0.14517944
110	0x3ca7c540	0.020479798
111	0xbe59a9f6	-0.21256241
112	0x3de85b9a	0.113455966
113	0xbc327d7e	-0.0108941775
114	0x3e12b1b6	0.14325604
115	0xbda6da58	-0.081471145
116	0xbdbec71d	-0.093153216
117	0x3c5b13c3	0.013371411
118	0xbe06363e	-0.13106629
119	0x3d76e4d4	0.06027682
120	0x3e06e46e	0.13173077
121	0x3c0eb719	0.008710646
122	0x3da815b1	0.08207262
123	0xbd7f4292	-0.062319346
124	0x3859e225	5.1947445e-05
125	0x3d725667	0.05916443
126	0xbd6b06a2	-0.057379372
127	0x3d45c129	0.048279915
128	0xbe0fecfd	-0.14055248
129	0xbce80b4a	-0.028325696
130	0x3d13170d	0.035910655
131	0xbe29909b	-0.16559069
132	0x3ce7902c	0.028266989
133	0x3d03be66	0.032164
134	0xbc1c0de6	-0.009524798
135	0x3c5d6749	0.013513395
136	0x3c9d6a4e	0.01921573
137	0x3c800060	0.015625179
138	0x3db7af47	0.089689784
139	0xbd80416b	-0.062624775
140	0x3d62570f	0.055258807
141	0x3d82a77d	0.06379602
142	0x3c68832c	0.01419143
143	0x3c1e1659	0.009648883
144	0xbcb365ad	-0.021899069
145	0xbe7f1dd6	-0.24913725
146	0xbd7d3aee	-0.061823778
147	0x3c8ad73e	0.016948339
148	0x3d95eaf7	0.073202066
149	0x3c9cd18c	0.019142888
150	0xbe27719d	-0.16351934
151	0x3d09deb0	0.033659637
152	0xbd5f8ce2	-0.054577716
153	0x3cb8518b	0.02249982
154	0x3b2991a6	0.0025874167
155	0xbd906585	-0.07050613
156	0x3b61dfdf	0.0034465713
157	0xbd40a289	-0.047030006
158	0xbcff9408	-0.031198516
159	0x3dcca498	0.09992331
160	0x3d9fcf2d	0.078031875
161	0xbc8c56ff	-0.017131327
162	0xbd437503	-0.047719013
163	0x3cac4339	0.021028148
164	0x3d8c4167	0.06848412
165	0x3d729838	0.0592272
166	0x3da82275	0.08209697
167	0xbded87f9	-0.115982
168	0x3d0aa1f9	0.033845875
169	0x3c832204	0.01600743
170	0xbda7a598	-0.081858814
171	0xbd073b9d	-0.033015836
172	0xbc95c5c9	-0.018282788
173	0xbb94a0e3	-0.0045357808
174	0x3cad5bac	0.021161877
175	0x3e11f1bd	0.14252372
176	0x3c6e1b9d	0.014532951
177	0xbe469fdf	-0.19396923
178	0x3d4bdf85	0.04977371
179	0x3dee1638	0.11625332
180	0xbd9a270f	-0.07526981
181	0xbdbb7c1c	-0.09154531
182	0xbb3f7947	-0.0029216574
183	0xbe368058	-0.17822397
184	0xbd87e91c	-0.06636259
185	0x3d9c3d4c	0.07628879
186	0xbc9be1f0	-0.019028634
187	0xbc96d805	-0.018413553
188	0x3d9ce463	0.07660749
189	0xbd406dd5	-0.046979744
190	0xbcaabf09	-0.020843046
191	0x3c1cd608	0.009572513
192	0x3c068f63	0.008212897
193	0x3cc28538	0.023745164
194	0xbd9017f7	-0.07035821
195	0x3c0c11e8	0.008549191
196	0x3c5ec7bf	0.013597428
197	0x3de839ea	0.11339171
198	0xbc7be531	-0.015374468
199	0xbcf5e54e	-0.030016568
200	0xbdbf3e3c	-0.09338042
201	0x3d6a2fa6	0.057174347
202	0x3bcbc2ba	0.0062182816
203	0x3cc02486	0.023454916
204	0x3d3ca910	0.046059668
205	0xbdf0b16d	-0.11752591
206	0xbc2413b2	-0.010014461
207	0xbe3da44b	-0.18519704
208	0x3caf3922	0.021389548
209	0xbccfd1df	-0.025368629
210	0xbedb98b3	-0.42889938
211	0x3d03a2f1	0.032137815
212	0x3b4fda74	0.0031715902
213	0xbb826ee2	-0.0039805034
214	0x3d3c536e	0.045978002
215	0x3d2909a5	0.041268963
216	0xbc7ed649	-0.015554019
217	0x3de773fe	0.11301421
218	0x3d406594	0.046971872
219	0xbc880934	-0.01660595
220	0xbcfc9892	-0.03083447
221	0xbc072661	-0.008248896
222	0xbc3041de	-0.010757891
223	0xbe182a35	-0.1485985
224	0x3d13efe5	0.036117453
225	0x3d4db4c0	0.050221205
226	0x3c432e3a	0.011912877
227	0x3d2d47ea	0.04230491
228	0xbd6c9cf8	-0.057766885
229	0x3d9c4d89	0.07631976
230	0xbd95c582	-0.07313062
231	0xbdda050a	-0.106454924
232	0xbcd49d2e	-0.025953855
233	0x3d4824b5	0.04886313
234	0xbdbc7f87	-0.092040114
235	0xbd8a6229	-0.06757004
236	0x3c653aec	0.013991099
237	0xbd6f77e0	-0.05846393
238	0xbdea6575	-0.11445133
239	0x3c922fae	0.017845001
240	0xbc8d102c	-0.017219625
241	0xbe5d1860	-0.2159133
242	0xbe382d0f	-0.17985938
243	0x3c842c85	0.01613451
244	0xbd7411d5	-0.05958732
245	0xbc8149f3	-0.015782332
246	0xbb095a91	-0.0020958523
247	0xbdc08fe3	-0.09402444
248	0xbd73438c	-0.05939059
249	0x3db146e5	0.086561
250	0x3da6e02b	0.081482254
251	0x3e0d5903	0.13803487
252	0x3cc8694f	0.024464278
253	0xbd6f2673	-0.058386277
254	0xbd3a2a5a	-0.045450546
255	0xbc817178	-0.015801176

layers.2.bias f4 [300]
0	0x3cc4731d	0.023980672
1	0xbcb2ed55	-0.021841684
2	0x3cfaefea	0.030631978
3	0x3d3c28b8	0.04593727
4	0x3d20fb87	0.039302375
5	0x3bb6fdda	0.0055844607
6	0xbdaf7962	-0.08568074
7	0x3d1e2387	0.0386081
8	0xbc87881d	-0.016544396
9	0x3c2a5458	0.010396086
10	0xbdc74583	-0.09730055
11	0xbe10e08c	-0.14148158
12	0xbc9028e2	-0.01759762
13	0xbdde20d2	-0.10846104
14	0x3d31d072	0.04341168
15	0xbd95502b	-0.072906815
16	0xbc1536c5	-0.009107296
17	0x3a87d72c	0.0010363809
18	0xbc3c6c3d	-0.011500415
19	0xbdb85f49	-0.09002549
20	0xbd3c6354	-0.045993164
21	0x3d6b91d4	0.05751212
22	0xbd9c856e	-0.07642637
23	0xbb94cdfc	-0.004541157
24	0x3d0faea5	0.035078663
25	0xbdcc306d	-0.09970174
26	0x3ce1b706	0.027553093
27	0xbd33e117	-0.043915834
28	0x3db3fc03	0.08788302
29	0x3d42307d	0.047409523
30	0xbd753232	-0.059862323
31	0xbbc1ba6b	-0.0059121153
32	0x3c802d70	0.015646666
33	0xbc81a627	-0.015826298
34	0xbda1debf	-0.079038136
35	0xbd160e30	-0.036634624
36	0xbddfc8d3	-0.10926976
37	0xbd231314	-0.039813116
38	0xbd16cd7b	-0.036817055
39	0xbdbaad19	-0.09115047
40	0x3d11eaee	0.035624437
41	0xbc01d0bd	-0.007923302
42	0x3cb44819	0.022007035
43	0x3cb02d16	0.021505874
44	0x3d1b21b4	0.03787394
45	0xbc4a1b0c	-0.01233555
46	0xbe3d8c8f	-0.1851065
47	0xbdb31872	-0.08744897
48	0x3a94654c	0.0011321693
49	0x3bceaf02	0.0063074837
50	0xbd26a573	-0.04068513
51	0xbc4a1729	-0.012334623
52	0xbc39b48a	-0.011334548
53	0xbd230d0b	-0.03980736
54	0xbd829096	-0.06375234
55	0xbdb6b324	-0.08920887
56	0xbe19fc89	-0.15037741
57	0xbd9b5fce	-0.07586633
58	0xbd632149	-0.055451665
59	0xbd860970	-0.06544769
60	0x3c2416d7	0.010015211
61	0xbb63127d	-0.003464847
62	0xbd5a64f2	-0.053318925
63	0xbdfc14e5	-0.12308673
64	0x3c12cdd0	0.008960202
65	0x3d7cd2bf	0.06172442
66	0x3c8282d3	0.015931522
67	0x3d26f3c7	0.040759828
68	0xbcca417b	-0.024689427
69	0xbd51a1ed	-0.051179815
70	0x3d143c70	0.03619045
71	0xbd4554b8	-0.048176497
72	0xbc1ad007	-0.009449012
73	0xbded8b1f	-0.11598801
74	0x3cfccc89	0.030859249
75	0xbe0b7044	-0.13617045
76	0xbdb51f1b	-0.088438235
77	0x3d13d325	0.036090035
78	0x3caa740c	0.020807289
79	0xbd8f4194	-0.0699493
80	0xbd9960e6	-0.07489185
81	0xbd477220	-0.048692822
82	0xbd571456	-0.05250963
83	0x3cf7fd8c	0.030272268
84	0xbcd238fb	-0.025661936
85	0xbcf4a12f	-0.029862015
86	0x3cabd5dc	0.020976
87	0xbd387800	-0.045036316
88	0xbd557c5f	-0.052120563
89	0x3dafac0c	0.08577737
90	0x3c8944df	0.016756473
91	0xbddc8d87	-0.10769182
92	0xbe174910	-0.14773965
93	0x3ccb5332	0.024819944
94	0x3bd1297c	0.006383119
95	0x3d7a30d5	0.061081726
96	0xbdcbb240	-0.09946108
97	0xbc493208	-0.012279995
98	0xbdb6cbfc	-0.08925626
99	0x3d752cab	0.05985705
100	0xbcc67fd1	-0.02423087
101	0x3d067833	0.032829475
102	0xbd3e5f89	-0.04647783
103	0xbd0271e5	-0.0318469
104	0xbc483c2f	-0.01222138
105	0xbd531f9e	-0.051543824
106	0xbc27863e	-0.010224877
107	0x3d93c331	0.07214964
108	0x3cb41af3	0.021985507
109	0x3da05fc5	0.078307666
110	0x3c44ba43	0.012007299
111	0x3c8a6ff8	0.016899094
112	0x3cd4cfca	0.025977988
113	0x3cb014f0	0.021494359
114	0xbe45b4e5	-0.19307287
115	0xbc0ce398	-0.008599184
116	0x3cdc98fd	0.02692842
117	0x3cb12541	0.02162421
118	0x3ddabbe7	0.10680371
119	0xbc241fb4	-0.010017324
120	0xbc4912f5	-0.012272586
121	0xbcfa60f7	-0.030563815
122	0xbd339ca6	-0.043850563
123	0x3d7f5fec	0.062347338
124	0x3cff6d81	0.031180145
125	0xbca5b476	-0.020227652
126	0x3ced6ea3	0.02898342
127	0xbcdb7b30	-0.026792139
128	0x3cf79710	0.0302234
129	0xbba1366b	-0.004919817
130	0xbc908595	-0.017641822
131	0xbd2bf32d	-0.041979957
132	0xbd08efd5	-0.033431847
133	0xbdb9229d	-0.09039805
134	0x3c1246c4	0.008928005
135	0x3d6ead74	0.058270887
136	0xbd8444ca	-0.06458433
137	0xbb91295e	-0.00442998
138	0x3bc5b157	0.0060331034
139	0xbcd1ab53	-0.025594389
140	0xbc67e9c5	-0.014154856
141	0xbdefce5c	-0.11709282
142	0xbc052ac1	-0.008127869
143	0xbc062d86	-0.008189565
144	0x3c4931dd	0.012279955
145	0xbc40cde2	-0.011767836
146	0x3c59c39b	0.013291265
147	0xbce0a5a5	-0.027422735
148	0xbaefe1b2	-0.0018301515
149	0xbc4ca543	-0.012490573
150	0xbd8d3bf0	-0.06896198
151	0x3d6b635b	0.0574678
152	0x3ce3b89b	0.027797988
153	0xbbf08569	-0.0073401225
154	0xbd5c1fb2	-0.053741165
155	0xbb5ce2d6	-0.003370454
156	0x3c97d282	0.018532995
157	0x3c91ee73	0.017813897
158	0xbc07ca86	-0.008288031
159	0xbd06213d	-0.032746542
160	0x3cbd1b4a	0.023084302
161	0x3cfc3f7f	0.030791996
162	0xbd04fceb	-0.032467764
163	0xbd9104a5	-0.07080964
164	0xbc42d20e	-0.011890901
165	0xbd8dfd04	-0.069330245
166	0xbdb7e17f	-0.08978557
167	0xbcf3a83c	-0.029743306
168	0xbd8fad0f	-0.0701543
169	0xbcbfebbb	-0.023427835
170	0xbdaa3c4c	-0.08312282
171	0xbdb979f6	-0.09056465
172	0xbd90b3b0	-0.07065523
173	0x3b6bf05a	0.0036001415
174	0xbd0dcca4	-0.03461899
175	0xbcc87434	-0.024469472
176	0x3d1a33af	0.037646946
177	0x3d047010	0.032333434
178	0x3ced328d	0.028954769
179	0xbcb7e0a5	-0.022445986
180	0x3d3fae5c	0.04679714
181	0x3ce396ce	0.02778187
182	0x3cd30c63	0.025762742
183	0xbd86f2ed	-0.06589303
184	0xbba082ec	-0.0048984196
185	0x3c228ee7	0.009921766
186	0xbcccaee9	-0.024985747
187	0x3d7a411e	0.061097257
188	0x3c98a05a	0.01863115
189	0xbd56a8a1	-0.05240691
190	0xbe007645	-0.12545116
191	0x3db6dc87	0.08928781
192	0xbcb05a07	-0.021527303
193	0x3b845f3c	0.004039673
194	0x3cb20efe	0.021735664
195	0xbc89d249	-0.016823905
196	0xbdb74616	-0.08948915
197	0xbccc228a	-0.024918813
198	0xbd691884	-0.056908146
199	0x3d398c89	0.04530004
200	0x3cd12224	0.025528975
201	0xbd2b9539	-0.041890357
202	0xbc620825	-0.013795887
203	0x3cf30e56	0.029669922
204	0xbc17b950	-0.009260491
205	0x3ce6e0e0	0.0281834
206	0x3ccff0b7	0.025383336
207	0xbd018d6f	-0.031629022
208	0xbe2406f6	-0.1601828
209	0xbd00bca0	-0.031429887
210	0x3d1f768c	0.038931414
211	0x3d5e816e	0.054322653
212	0x3c3401d4	0.010986764
213	0xbd36629c	-0.044527635
214	0x3d181721	0.037131432
215	0x3d92cbe8	0.07167798
216	0x3d098095	0.03356989
217	0xbd126333	-0.035739135
218	0x3d9128be	0.07087849
219	0x3bec8b56	0.0072187586
220	0xbcf23821	-0.02956778
221	0xbdd175b4	-0.10227528
222	0xb7c0b8ad	-2.297418e-05
223	0x3c08c579	0.008347862
224	0x3d9e2461	0.077217825
225	0x3bc87676	0.0061176373
226	0x3d94cac6	0.072652385
227	0x3cc3dcd0	0.023909003
228	0xbdfdbdc0	-0.123897076
229	0x3b7ceeab	0.0038594406
230	0xbc9dbb7a	-0.019254435
231	0xbe1df44a	-0.1542522
232	0xbd525548	-0.05135086
233	0x3c527620	0.012845546
234	0x3c59a39e	0.013283638
235	0xbd6ca95e	-0.05777871
236	0x3c0d5f9f	0.008628755
237	0x3c4e9249	0.012608119
238	0xbce6458d	-0.028109336
239	0xbc81e958	-0.015858337
240	0x3bc97a98	0.0061486475
241	0xb9f18315	-0.00046064766
242	0xbdaa211f	-0.083070986
243	0xbd32e3f5	-0.043674428
244	0x3d7e188e	0.062035136
245	0xbd8069a9	-0.06270153
246	0xbb21389b	-0.002460039
247	0xbd724fed	-0.059158254
248	0x3d85e1b2	0.065371886
249	0xbcf8377d	-0.030299896
250	0xbd30a804	-0.043128982
251	0xbcbff8fc	-0.023434155
252	0x3cee4191	0.029083999
253	0x3d1e05dc	0.038579807
254	0x3c63d049	0.0139046395
255	0xbd2ee56b	-0.04269926

layers.4.weight f4 [4, 300]
0	0xbd221e56	-0.03957971
1	0xbe4c1b23	-0.19932227
2	0x3e9d869e	0.30766767
3	0x3d72c79c	0.059272394
4	0x3de5228a	0.111882284
5	0xbe2712a7	-0.16315709
6	0xbe249521	-0.16072513
7	0xbdc35964	-0.09538534
8	0x3d269544	0.040669695
9	0xbcf60a02	-0.030034069
10	0xbebb8cdb	-0.36630902
11	0x3e004e59	0.12529887
12	0xbe05956b	-0.1304528
13	0x3ec903ff	0.3926086
14	0x3c95f95c	0.01830738
15	0xbd96c963	-0.0736263
16	0xbcf4fdcf	-0.029906182
17	0x3d7aa537	0.061192717
18	0xbe581630	-0.21102214
19	0x3cdc1fd5	0.026870647
20	0xbd9d7a89	-0.07689387
21	0x3d156dd1	0.036481682
22	0x3e87d26a	0.2652772
23	0xbeb4dd28	-0.3532498
24	0xbe23b4c6	-0.15986928
25	0x3de75b1c	0.112966746
26	0xbe3f45d0	-0.18678975
27	0xbe5e0856	-0.21682867
28	0x3e4fbe13	0.20287351
29	0x3e5dd01a	0.21661416
30	0x3e6d60a7	0.23181401
31	0x3da25116	0.07925622
32	0x3d99791e	0.074938044
33	0xbe4f201f	-0.20227097
34	0x3e29a1af	0.16565584
35	0x3f114abb	0.56754655
36	0x3e800e01	0.25010684
37	0xbec92f53	-0.39293918
38	0x3e6a7f1e	0.22900054
39	0x3ded5db7	0.1159014
40	0xbe3fc675	-0.18728049
41	0xbf0e0a14	-0.5548413
42	0x3e00fc83	0.12596326
43	0xbe8106de	-0.25200552
44	0x3e13261c	0.14370006
45	0x3e9b4a54	0.30330145
46	0xbe40c405	-0.18824776
47	0x3deade5c	0.11468193
48	0x3dba5c8b	0.090996824
49	0xbd954a2f	-0.0728954
50	0x3dc7e325	0.09760121
51	0x3e304a7a	0.1721591
52	0xbe0136bf	-0.1261854
53	0xbde39d98	-0.11114043
54	0x3e18cd97	0.14922176
55	0xbd280e47	-0.04102924
56	0x3da2b3a3	0.07944419
57	0x3df5e2b9	0.120061345
58	0x3cad8056	0.02117936
59	0xbe434cae	-0.1907222
60	0x3de7b453	0.11313691
61	0xbe9079ac	-0.28217828
62	0x3f1bbdf6	0.6083673
63	0x3d4e8774	0.050422147
64	0xbdac378e	-0.08409034
65	0xbe02a666	-0.12758788
66	0x3d7b934f	0.06141978
67	0x3e3c7fd9	0.18408145
68	0x3e04b01e	0.12957808
69	0xbe16876b	-0.14700095
70	0xbf0aeb32	-0.5426513
71	0x3e5243a0	0.2053361
72	0xbe3f7225	-0.18695886
73	0x3ce54578	0.027987227
74	0xbdd4a53c	-0.103830785
75	0xbd6baf88	-0.057540447
76	0xbe4f05df	-0.20217083
77	0xbe860525	-0.261758
78	0x3e7e6e45	0.24846752
79	0x3eb33118	0.34998393
80	0xbe0fa09e	-0.14026114
81	0x3e141853	0.14462404
82	0x3eab9d6e	0.33518547
83	0xbe066e05	-0.13127907
84	0xbdb3a4f2	-0.08771695
85	0xbda2a397	-0.079413585
86	0x3c007716	0.007840892
87	0x3ce8456e	0.02835342
88	0x3e82c1e9	0.25538567
89	0x3e2db936	0.16965184
90	0x3e345fff	0.17614745
91	0x3d13ef51	0.0361169
92	0xbf009f5d	-0.5024317
93	0x3e600ade	0.21879146
94	0xbe2b694f	-0.16739391
95	0xbd89a866	-0.067215726
96	0xbee1a721	-0.44072822
97	0x3dcd3930	0.10020673
98	0xbef86546	-0.48514766
99	0x3e8ebb6c	0.27877367
100	0xbeb728f1	-0.35773423
101	0xbed961b4	-0.42457354
102	0x3a60d14a	0.00085761084
103	0xbeb87dfc	-0.36033618
104	0xbe1fd173	-0.15607242
105	0xbe4a61fd	-0.19763942
106	0x3e5e260a	0.21694198
107	0xbe629cf1	-0.22130181
108	0xbe934418	-0.2876289
109	0xbef2a409	-0.47390774
110	0xbd881958	-0.06645459
111	0xbcd1a72d	-0.025592411
112	0x3e67fc38	0.22654808
113	0x3e0bca33	0.13651352
114	0x3f48f978	0.7850566
115	0xbe857aa9	-0.26070145
116	0x3e07f1c8	0.13275826
117	0xbdf11128	-0.117708504
118	0x3e7d0ae6	0.24711189
119	0xbd4fbef0	-0.0507192
120	0xbdc4788d	-0.09593306
121	0x3ec64cad	0.38730374
122	0xbacd4aa0	-0.0015662499
123	0xbcfadd4a	-0.030623097
124	0xbe04694c	-0.12930793
125	0xbed6148d	-0.41812554
126	0x3dbfd46c	0.09366688
127	0x3db2d324	0.08731678
128	0x3e43a619	0.1910633
129	0x3d34274f	0.0439828
130	0xbe0c1e55	-0.13683446
131	0x3ea3582b	0.31903204
132	0xbd85c9de	-0.06532644
133	0x3cfe1227	0.031014515
134	0x3e88dd1d	0.26731196
135	0xbdbed7ef	-0.0931853
136	0xbdcbcf3d	-0.09951637
137	0x3ce0ddc9	0.027449505
138	0xbeaedc4f	-0.34152457
139	0x3950866c	0.00019886502
140	0x3eba46ba	0.36382085
141	0xbde591e6	-0.112094685
142	0x3d118072	0.035522886
143	0xbe983ea5	-0.29735294
144	0x3ed2997f	0.41132733
145	0x3e947ca8	0.29001355
146	0xbe23c0eb	-0.15991561
147	0x3dad4623	0.08460643
148	0xbe73fa91	-0.23826052
149	0x3dad5c78	0.08464903
150	0x3c6fb94a	0.014631579
151	0x3ebb18e8	0.3654244
152	0xbe1529b5	-0.14566691
153	0x3ea1145c	0.31460845
154	0x3ec88875	0.39166608
155	0x3e8743a7	0.26418802
156	0x3e974bda	0.29550058
157	0xbe19f189	-0.15033545
158	0xbebc8574	-0.36820567
159	0x3eb37172	0.3504749
160	0xbeb32599	-0.34989622
161	0x3dcbca59	0.09950704
162	0x3a1adc2d	0.00059074425
163	0x3e0fc40a	0.14039627
164	0x3e6cfb6e	0.23142788
165	0x3eb4ac3e	0.3528766
166	0x3ebe1d2a	0.37131625
167	0x3b8b0a54	0.0042431746
168	0xbc19e34b	-0.00939257
169	0x3e88332d	0.26601544
170	0xbdc6eb61	-0.09712864
171	0x3b7d01ce	0.0038605812
172	0x3ec5252c	0.38504922
173	0xbe01901c	-0.1265263
174	0x3e8b8331	0.2724853
175	0xbe64b87f	-0.22336005
176	0x3e1c2ebb	0.15252201
177	0xbe7cd1f9	-0.24689473
178	0xbecc0588	-0.3984797
179	0x3deb2a1c	0.11482641
180	0x3e676cc8	0.2260009
181	0xbebd294c	-0.3694557
182	0x3ed5dc5c	0.41769683
183	0x3e2a0175	0.16602118
184	0xbe38f161	-0.18060829
185	0xbe4905cc	-0.19631118
186	0x3f05f305	0.52323943
187	0xbe2a138b	-0.16609018
188	0x3d550ee6	0.05201616
189	0xbd1644f5	-0.036686856
190	0xbebfb25e	-0.3744077
191	0x3e172e03	0.14763646
192	0x3e701669	0.23446049
193	0x3e09a309	0.13441099
194	0xbd4d2d05	-0.050091762
195	0xbd8ecca8	-0.06972629
196	0x3e0a87da	0.13528386
197	0xbf137dd6	-0.57613885
198	0xbdb783a4	-0.08960655
199	0xbd65c667	-0.056097414
200	0xbea7c4fd	-0.32767478
201	0xbeb36a1e	-0.35041898
202	0x3e51a9c2	0.20474914
203	0x3de3e82f	0.1112827
204	0xbe97b0d0	-0.29627085
205	0xbe25e83d	-0.16201873
206	0x3ea988da	0.33112222
207	0xbe384c4a	-0.17997852
208	0xbdaa809e	-0.08325313
209	0x3e9749ac	0.29548395
210	0xbee3654a	-0.44413215
211	0x3e81599c	0.2526368
212	0xbe5594b7	-0.20857511
213	0xba0cad9f	-0.0005366448
214	0xbe9150bb	-0.28381905
215	0x3e0d965b	0.13826887
216	0x3dd2d568	0.1029461
217	0xbec944bd	-0.39310256
218	0xbee3deb2	-0.4450584
219	0x3da766a1	0.08173872
220	0x3e138c5b	0.1440901
221	0xbea27ff2	-0.3173824
222	0x3f16e0db	0.5893685
223	0xbdc2640b	-0.09491738
224	0x3e35e1f4	0.17761976
225	0xbdd359cd	-0.103198625
226	0x3e523b7e	0.20530507
227	0xbe533193	-0.2062438
228	0x3e22e7fb	0.15908806
229	0x3ea48a9d	0.32137004
230	0x3bcc003c	0.006225614
231	0x3e3d32bc	0.18476385
232	0x3ed10b90	0.40829134
233	0x3e395493	0.18098669
234	0x3dcb5414	0.09928146
235	0xbd45c347	-0.048281934
236	0xbd6d1aeb	-0.057887
237	0x3d411613	0.047140192
238	0x3e836609	0.25663784
239	0x3df4d327	0.119543366
240	0x3d6a62d4	0.057223156
241	0xbedb757b	-0.42863068
242	0xbe27ab22	-0.16373876
243	0xbe2b7740	-0.16744709
244	0x3da8d53a	0.08243795
245	0x3da28e50	0.079373
246	0xbe8853b3	-0.26626357
247	0xbee4650a	-0.44608337
248	0xbdf5e9e5	-0.120075025
249	0x3e0420a0	0.1290307
250	0xbe22d19b	-0.1590027
251	0x3f068585	0.52547485
252	0x3d52b023	0.05143751
253	0x3e635bbc	0.22202963
254	0xbd0ca1b9	-0.03433392
255	0x3d6b506c	0.057449743

layers.4.bias f4 [4]
0	0xbc014338	-0.007889561
1	0x3c93f01c	0.018058829
2	0x3d4eb42a	0.050464787
3	0x3dabf5a8	0.083964646
